weights/16_hidden_lstm_f.pth (torch_old, 6905 bytes, 6 tensors)

lstm.weight_ih_l0 f4 [64, 4]
000000 3f 8d 44 3e 21 40 7c bc d8 e3 16 3e 83 f0 55 be
       0.19194506 -0.015396149 0.14735353 -0.20892529
000010 53 bd bb 3d c8 5e b3 3c 9b 56 6f 3d e8 97 bc bd
       0.0916697 0.021895781 0.058432203 -0.09208661
000020 4b 03 88 3d 06 45 33 3c 20 d8 b2 3e c1 35 df be
       0.06641253 0.010941749 0.34930515 -0.43595698
000030 49 ef c0 3d b0 c1 8f 3b 94 cb c0 3d 57 93 d1 bd
       0.0942064 0.004387103 0.094138294 -0.10233181
000040 06 bf 63 3d 7a 2f 16 3d 68 1b be bd f8 d7 aa 3d
       0.055602096 0.03666637 -0.09282571 0.08341974
000050 12 56 13 3e 66 4e be b8 fa 1c e9 3e a4 27 09 bf
       0.14388302 -9.074509e-05 0.4552992 -0.5357611
000060 a1 9a 2e 3e 3e 79 83 3c e0 1e c7 3e 00 cf dd be
       0.17051174 0.016049024 0.38890743 -0.4332199
000070 29 a9 62 3d 3d b1 0a 3c f9 ab ae 3d 5c 98 e4 bd
       0.055337105 0.008465108 0.08528895 -0.11161873
000080 86 07 75 bc bc 7d 30 3e ad 32 a2 3c 29 d9 8d bd
       -0.014955407 0.17235464 0.019799555 -0.06926186
000090 f1 6b b8 3e 11 0b 0c 3d 06 98 e2 3d 2d 86 0f 3c
       0.36019853 0.03419024 0.110641524 0.008760017
0000a0 eb e5 57 3e b7 95 c3 3c 25 75 ec bb e9 fb b5 bd
       0.210838 0.0238751 -0.007216113 -0.08885939
0000b0 da 22 af 3e 64 11 0b 3d df aa 75 3e db 85 09 be
       0.34206277 0.033952132 0.23990963 -0.13429968
0000c0 e7 10 d3 3d 56 c5 30 3c a6 66 a6 3d 3f 27 c1 bd
       0.10305958 0.010789236 0.081250474 -0.09431314
0000d0 c9 3e ae 3d 40 3a 14 3c 7f a9 ae 3d c7 ce de bd
       0.08508069 0.009047091 0.085284226 -0.108792834
0000e0 87 18 5f 3e 1f 34 53 bc 47 6e ac 3e f1 e4 df be
       0.217867 -0.012890845 0.33677885 -0.43729356
0000f0 eb 1f 2f 3f 9c fe 03 bd 5f dc b9 bc 56 1e 03 3e
       0.6840808 -0.032225236 -0.022688089 0.12804541
000100 fd c4 08 bd 5c a0 87 bd 70 36 4a 3d 41 90 8b be
       -0.033390988 -0.06622383 0.049368322 -0.27258494
000110 70 83 ef 3c 94 b8 92 3c 92 69 48 3e dd 21 57 be
       0.029237479 0.01791028 0.19571522 -0.21009012
000120 8d c0 d7 be 04 d4 96 bc 08 2f 2c 3e b9 00 f2 bd
       -0.42139092 -0.018411644 0.16814816 -0.11816544
000130 0c 01 cb 3d 06 0c c4 3b a9 d3 4c 3e 58 f4 6b be
       0.09912309 0.0059828786 0.20002617 -0.23042428
000140 56 18 6a 3e 9a 52 37 3c 22 02 00 bd a0 98 ef 3d
       0.22860846 0.011189127 -0.031252034 0.11699033
000150 0c ad 93 3f d8 0f 91 3c d1 e3 16 bd f6 77 ac 3d
       1.1537185 0.01770775 -0.036838356 0.08421318
000160 e7 dd 45 3f e4 23 66 3c 9b 0d ba bb 8b 20 e8 3c
       0.7729172 0.014046643 -0.0056778914 0.02833583
000170 5c f8 b6 3d 74 0f 38 3a 09 e4 4d 3e b3 8d 71 be
       0.089340895 0.00070213457 0.2010652 -0.2358921
000180 42 ab 2d be a9 a3 e7 3d 6a 9c 82 3e 58 dc 26 be
       -0.16959861 0.113105126 0.2550996 -0.16294992
000190 b6 45 f8 3e 39 da fb 3c 8b dd 09 3e 63 fa e8 bd
       0.48490685 0.030743705 0.13463418 -0.113758825
0001a0 2e 32 16 3e f0 c1 92 3c da ce 87 3e c6 7a 93 be
       0.1466758 0.017914742 0.26525003 -0.28804606
0001b0 97 ad 03 3f 32 c1 3a 3d 28 56 52 be 60 9d 96 3d
       0.5143675 0.0455944 -0.20540679 0.07354236
0001c0 77 85 d0 3d b5 73 f2 3b ae ef 4f 3e 5a 1d 6f be
       0.101817064 0.0073990473 0.20306274 -0.2335104
0001d0 5a 9c c1 3d ba c3 cd 3b 97 83 46 3e ed 09 65 be
       0.0945365 0.006279436 0.19386135 -0.22367068
0001e0 09 8d f6 be f2 54 2e bc ba 26 23 3d 3a 1a 01 bc
       -0.48154476 -0.01064037 0.039831854 -0.007879788
0001f0 e7 90 bc 3f 28 43 cf bd 36 70 da bd 94 db d8 3d
       1.4731721 -0.10120231 -0.10665934 0.10588756
000200 b8 39 4f bb 24 47 f3 3e fb 86 6f 3d 19 9c f1 3e
       -0.0031620096 0.47515213 0.058478337 0.47189406
000210 0f c9 8d bd 46 71 ab 3d b5 fd 30 3e 63 50 1b be
       -0.069231145 0.083712146 0.17284282 -0.15167384
000220 83 46 cb 3c dc 46 f5 bc b1 12 d9 bc fe f1 d6 3c
       0.024813896 -0.029941015 -0.02649817 0.026238438
000230 7e 47 ca 3d ee ed a0 3b f8 b2 09 3e 82 67 1e be
       0.09876917 0.004911176 0.13447177 -0.15469173
000240 c7 ac a1 3d d0 8d 82 3b 3b 8b 6a 3e 33 50 90 be
       0.07894283 0.0039841905 0.22904675 -0.28186187
000250 63 b7 87 bd b0 f4 7d 3d 39 9e 74 3c 28 e9 68 bc
       -0.06626775 0.06200093 0.014930301 -0.014215745
000260 3e 15 43 bf 5b cc be 3c 4b ea 82 3d ba 13 d2 3c
       -0.7620429 0.023290804 0.06392344 0.025644172
000270 8a 55 51 bd 54 79 85 bc 54 f6 07 be 3c 26 2d 3e
       -0.051106967 -0.016293205 -0.1327756 0.16909117
000280 20 0b 0b 3e 36 ab 38 3e c0 58 4d be ff 72 10 bd
       0.13578463 0.18034062 -0.20053387 -0.03526592
000290 57 39 03 bf 7d 93 cc bd 94 bb a6 bd 41 dd 18 be
       -0.5125937 -0.09989069 -0.081412464 -0.14928152
0002a0 a0 ca 4c be 09 6a c6 bd 62 04 5d bd ea 80 1a 3d
       -0.1999917 -0.09688193 -0.053959258 0.0377206
0002b0 b2 ac 09 3f 9d f5 c0 bb 9b 96 36 3d ad e2 07 3e
       0.5377914 -0.0058886544 0.044577222 0.13270064
0002c0 23 41 cc bd 57 86 9e bc 67 39 9a bd eb 4e 00 3e
       -0.09973361 -0.019351168 -0.0753048 0.12530105
0002d0 39 54 0b 3e 25 ba 8b 3c a7 ed 9b 3d a8 31 d4 bd
       0.13606347 0.017056534 0.07613688 -0.10361034
0002e0 b6 60 09 3f b5 51 68 3e d9 66 56 bd 7f fc fe 3d
       0.53663194 0.22687419 -0.052344177 0.124505036
0002f0 4b 85 4d be d6 e5 73 3c 92 ed 6a 3e cc 16 44 be
       -0.20070378 0.01488634 0.22942188 -0.19149321
000300 ee 3a 49 3e 64 63 aa bc ad ff 3c 3e 68 34 89 be
       0.19651386 -0.020799346 0.18456908 -0.26797795
000310 2c 43 87 bb 7f cc dd 3d 60 b3 81 3e d1 fe 82 3c
       -0.0041278806 0.1083002 0.25332165 0.015990647
000320 9d ce d4 3d 4f 2a 9a 3b 1e a5 bd 3e 42 b7 f4 be
       0.10390971 0.0047047506 0.37040037 -0.47796065
000330 78 c8 51 3e bb 5a 38 3d c7 3f e6 3c 69 ef f6 3d
       0.20486629 0.045008402 0.028106583 0.120573826
000340 eb bf 04 3e 6a 1f 6a 3c a8 23 95 3e 70 4c a8 be
       0.12963836 0.014289716 0.29128766 -0.32870817
000350 89 c5 99 3d 7f f5 9e bc 57 9f 09 3f 9d 3e 1f bf
       0.0750838 -0.019404171 0.5375876 -0.62204915
000360 f9 02 86 3e db dc 98 3b f7 f9 e2 3e 84 75 eb be
       0.26174143 0.004665 0.44331333 -0.45988095
000370 49 f5 3d bd e7 3a 3a 3e 08 77 19 3e 1a 28 6e be
       -0.0463765 0.18186532 0.14986813 -0.23257485
000380 76 97 13 3e 03 41 1b 3d 2d 63 b3 3e 4b 0b aa be
       0.14413247 0.037903797 0.35036603 -0.3321174
000390 73 bd 41 3f 26 e9 90 3d 9e 75 b4 b7 1f 23 3f be
       0.756797 0.070757195 -2.1512442e-05 -0.18665741
0003a0 4b 20 cd 3e 54 88 a2 3d 5d 65 fc bd 3e 26 15 be
       0.400637 0.07936159 -0.12324021 -0.1456537
0003b0 71 4f 69 3e 5b 40 0c 3d 5c 0d 98 3e e7 49 92 be
       0.2278421 0.03424106 0.29697692 -0.28572008
0003c0 ae 94 29 3e f6 09 3f 3d d3 62 9d 3c f5 9f 06 3e
       0.16560623 0.04664036 0.019212162 0.13146956
0003d0 f0 3a 63 3e aa 66 15 3d 7a 8c 1a 3d 11 9d 44 3d
       0.22190452 0.03647486 0.037731625 0.048001353
0003e0 1a 5d 0d 3e 8e c1 6d bc 77 9b e8 3e b1 76 e6 be
       0.13805047 -0.014511479 0.4543111 -0.4501243
0003f0 d1 92 87 3e 2c d1 fa bc 24 47 b7 3e b1 36 a2 be
       0.264792 -0.030617319 0.35796463 -0.3168235

lstm.weight_hh_l0 f4 [64, 16]
000000 86 fe 75 bd 85 b8 8c 3d a7 4e 2d bd d2 0f 40 3d
       -0.060057186 0.06871132 -0.042311337 0.046890087
000010 a9 25 2b 3d 57 ce 0a 3d 53 ae 6f 3c 8b 61 aa bd
       0.041783962 0.033888187 0.0146289645 -0.08319386
000020 8c 52 c3 3d b9 b4 4f bd 3e 15 73 bd 00 82 bb 3c
       0.09537229 -0.05070946 -0.05934643 0.022889137
000030 1b 03 65 bd 7f 6c 63 3d e7 e4 11 bd ae d3 a5 3d
       -0.055911165 0.05552339 -0.03561869 0.08097015
000040 cb 62 00 3b 42 0f 1e 3d d0 64 77 3b 8f 37 02 3d
       0.0019590135 0.03858877 0.0037749298 0.031791266
000050 19 71 f1 3c 0c 31 6d 3d 42 f5 e8 bc 69 8c 3e bd
       0.029472874 0.057908103 -0.02843726 -0.046520624
000060 da 8e 48 3d 6a f3 29 bd 14 a1 0d bd 2a 8e 09 3d
       0.04896436 -0.041491903 -0.034577444 0.033582844
000070 5e d9 12 bd 4b 1e 16 3d 73 0d 63 bb 85 8c 84 3d
       -0.03585183 0.036649983 -0.0034645468 0.064721145
000080 2b 23 0b be e7 9b 23 3e ab 2a 3e bd 77 3d f4 3d
       -0.13587634 0.15977441 -0.04642741 0.11925786
000090 1b 7f f3 3d 45 d8 42 3d ee a4 9d 3d 6a cf 3a be
       0.11889478 0.047569532 0.076974735 -0.18243185
0000a0 f3 18 4e 3e 5a 06 86 bd 47 8b 04 be 2b 27 59 3c
       0.20126705 -0.0654418 -0.12943755 0.013253967
0000b0 f6 6f 0a be ba 89 01 3e 9f 67 10 bd 36 17 24 3e
       -0.13519272 0.12650195 -0.03525507 0.1602448
0000c0 2c 6d 65 bc 70 d3 16 3d 44 87 6e bc 64 aa bd 3c
       -0.014003079 0.036822736 -0.014558617 0.023152538
0000d0 56 17 9d 3c b5 79 48 3d e9 53 9a bc 30 10 31 bd
       0.019176167 0.048944194 -0.01883884 -0.04322833
0000e0 df 83 5f 3d f1 31 0a bd cb 62 08 bd e7 3a 98 3c
       0.05456912 -0.033739034 -0.03329734 0.018582774
0000f0 ec 88 f1 bc e4 b7 f1 3c 28 ba 5d bc c7 ae 63 3d
       -0.029484235 0.029506631 -0.013533153 0.055586603
000100 6a d3 96 bd 31 7b 3f 3d d4 d0 8e 3b a1 92 13 3e
       -0.07364543 0.046748344 0.0043583903 0.14411403
000110 27 01 e7 3d 13 1d 4f bf 5e 01 37 3f 3b 13 82 bd
       0.11279517 -0.8090374 0.7148646 -0.06351324
000120 ee 64 1c 3e 40 22 62 3e d8 9e b4 bd d1 a3 06 be
       0.15272877 0.22083378 -0.088193595 -0.13148428
000130 5c bd 0c be b8 6d f2 3d 8c 4d 00 be 09 1c 96 be
       -0.1374411 0.118373334 -0.12529582 -0.29318264
000140 e9 d7 06 be 34 ee 47 3e 53 a3 d6 bd 95 26 06 3e
       -0.131683 0.19524461 -0.104803704 0.13100655
000150 c0 3b f1 3d 0a a6 23 3e bb 41 94 3c f2 02 62 be
       0.117789745 0.15981308 0.018097749 -0.22071436
000160 9d 87 89 3e 6f 97 fa bd 2e ea 25 be 3c 17 47 3d
       0.26861277 -0.12235915 -0.16202614 0.048606142
000170 9b ca 1e be c3 1b 1b 3e f0 60 03 bd 95 b7 7a 3e
       -0.15506975 0.15147309 -0.03207487 0.24484093
000180 1c 31 dc bd 28 1f 29 3e de a4 67 be 1e 14 a0 3d
       -0.10751554 0.16515791 -0.22621486 0.07816337
000190 1e e7 8b 3d 90 f6 b0 3e d4 b0 08 be ad c0 47 be
       0.068311915 0.34563112 -0.13348705 -0.19507094
0001a0 75 ef 9b 3e 74 98 15 be 34 59 11 be 71 20 5a 3d
       0.3045613 -0.14608938 -0.14194185 0.053253595
0001b0 4d 8e e1 bd 5a ba e2 3d 7f f4 10 be 43 9c 9b 3e
       -0.1101347 0.110707 -0.14155768 0.30392656
0001c0 8c 44 25 bc af aa 19 3d 7d 00 d8 bb 9d a8 bc 3c
       -0.010087144 0.037516292 -0.006591855 0.02302962
0001d0 3a 27 a9 3c 62 f2 65 3d 49 22 0b bd c9 2f 35 bd
       0.020648587 0.056139357 -0.033968244 -0.044235025
0001e0 98 a8 2c 3d 1e 92 21 bd 01 70 dd bc a0 3d e1 3c
       0.04215297 -0.03944599 -0.027030947 0.027495205
0001f0 86 51 ee bc 79 7c f3 3c c5 c6 03 bc 9a 86 82 3d
       -0.029091608 0.02972244 -0.008042996 0.063733295
000200 40 5e 17 3e 6e b9 95 3d 1f 9b e3 bd fc 00 93 bc
       0.14782047 0.073107585 -0.111135714 -0.017944805
000210 fe 20 dc bc 3f 32 ab 3e 13 64 96 bd de ef 54 bd
       -0.0268712 0.33436772 -0.073433064 -0.051986568
000220 65 df 20 3e 6c 27 3e bd d4 2a 45 bd 43 20 0f bd
       0.15710218 -0.046424314 -0.048136547 -0.034942877
000230 9e 0c e6 bc 81 80 33 ba df be ae be 53 04 1d 3e
       -0.028082188 -0.00068474567 -0.34129998 0.15333681
000240 a8 d6 58 3b 4f 43 00 3d 26 17 d2 bd 3e c1 03 3c
       0.003308693 0.03131419 -0.102583215 0.008041678
000250 1e a8 16 3c 91 87 2a 3e 39 94 d4 bd 00 82 b1 bc
       0.009195356 0.16653277 -0.10379834 -0.021668434
000260 8b fd 20 3e a1 a2 9b bd a4 24 69 bd 48 f0 8e 3d
       0.15721719 -0.075993784 -0.05691971 0.06979424
000270 b0 f6 f6 bc f5 05 b7 3c 2e b9 39 be 54 dd 88 3d
       -0.030146927 0.022341708 -0.18137047 0.0668284
000280 88 48 3b 3c 2d 92 6c 3d 43 3f 70 bc bd cf 65 3c
       0.011430867 0.05775659 -0.01466352 0.014026579
000290 4e e0 6b 3c e6 84 07 3e 3b 87 d8 bb 1a 29 71 bd
       0.01439674 0.1323429 -0.0066079176 -0.058877088
0002a0 c5 a7 a2 3d e9 8d a7 bc ff 65 ce bc 93 ad 6a bc
       0.07942156 -0.02045341 -0.02519512 -0.01432361
0002b0 3c 90 01 bd 55 e6 ad 3c 74 ee f1 bd 3c a6 ac 3d
       -0.031631693 0.021227995 -0.118130594 0.08430144
0002c0 ee 52 d8 bd 9d b5 39 3e 1a 3c 3a be 02 c5 f2 3d
       -0.105626926 0.18135686 -0.1818699 0.118539825
0002d0 e8 ab ad 3d 3d 80 e6 3d dd b0 14 3d 7a 6d 38 be
       0.08480054 0.11254928 0.036301482 -0.18010512
0002e0 1c 9e aa 3e e6 9d 93 bd 2b 5c 1b be 07 02 df bc
       0.33323753 -0.07207851 -0.15171878 -0.027222646
0002f0 31 4d 1e be 79 8f b3 3d 22 94 58 be 47 49 ce 3d
       -0.15459134 0.087675996 -0.21150258 0.1007257
000300 22 09 09 bc ea 3f 1f 3d c1 68 19 bc 9e 1a d0 3c
       -0.008363994 0.038879313 -0.009363354 0.025403317
000310 1b b7 b5 3c b9 55 48 3d c1 03 b1 bc 31 ea 3a bd
       0.022182038 0.048909876 -0.021608235 -0.0456335
000320 8e bb 52 3d 67 e8 10 bd 41 3a 07 bd 7c f8 b1 3c
       0.051448397 -0.035377886 -0.03301454 0.021724932
000330 c9 76 ff bc 95 4c 00 3d 85 ed 65 bc 46 0f 6d 3d
       -0.03118457 0.031323034 -0.01403368 0.057875894
000340 a4 66 49 bc 27 b4 1b 3d 92 bb 8a bb 51 16 d7 3c
       -0.012292538 0.038013604 -0.004233786 0.026255758
000350 5a ab cc 3c 4d 7e 1a 3d 6e c7 a7 bc a1 80 35 bd
       0.02498405 0.037718106 -0.020480838 -0.044312123
000360 ff 6b 34 3d 54 e4 0b bd ed f8 e9 bc be ff bf 3c
       0.044048306 -0.034153298 -0.02856108 0.023437377
000370 8f 74 fa bc d9 49 fc 3c 4b e1 de bb 79 ab 69 3d
       -0.030573158 0.030796932 -0.0068017594 0.057048295
000380 12 e3 cd bd 76 2d 28 3e 5c 36 b8 bc f2 f7 dc 3d
       -0.10053076 0.16423592 -0.022486858 0.10789479
000390 c9 0e cc 3d 08 c9 16 3e 62 ca f1 bd 7e 5a 3c be
       0.099637575 0.14725125 -0.118061796 -0.18393895
0003a0 34 10 51 3e ce 21 17 be 14 8d 11 be db d1 02 3e
       0.20416337 -0.14758989 -0.14213973 0.12775366
0003b0 85 b4 07 be 21 9b 08 3e 7e 99 dc 39 5e 38 62 3e
       -0.13252456 0.13340427 0.0004207603 0.22091815
0003c0 e6 b8 15 3e b3 31 89 be 1b 07 ed 3d 1f e0 6d be
       0.14621314 -0.2679573 0.11573621 -0.23230027
0003d0 90 a1 31 be 0f 80 92 3e fc 59 2f bf 53 c1 86 3e
       -0.17346787 0.28613326 -0.6849668 0.2631937
0003e0 ea 19 0c bf 36 41 c8 bd e2 35 9e 3e 52 d2 43 3e
       -0.5472704 -0.09778063 0.30900484 0.191232
0003f0 97 9c 85 3e e0 3e 76 be 36 17 48 3e a4 a9 1b 3d
       0.2609603 -0.24047422 0.19540104 0.03800358

lstm.bias_ih_l0 f4 [64]
000000 9f 33 f8 3d 6c 53 8f 3d e1 f6 8c 3e 56 85 93 3d
       0.12119221 0.06998333 0.27532104 0.07203166
000010 4b d9 50 3e 4b 7e b6 3e df 54 99 3e 6b c9 80 3d
       0.2039539 0.3564323 0.29947564 0.062884174
000020 df d9 23 3d 28 f4 ce 3c 46 a6 13 bc 4b 54 09 3e
       0.0400027 0.025262907 -0.009011811 0.13411061
000030 37 28 74 3d b9 37 8d 3d dc 22 9e 3e 25 21 21 be
       0.059608664 0.06895394 0.3088597 -0.157353
000040 a5 b1 a0 3d 26 75 17 3e ef 30 a0 3d 46 20 1d 3e
       0.07846383 0.14790782 0.07821833 0.15344343
000050 a4 df 0b 3d a0 7e ec 3d e4 bc f4 bd 5c ac 1d 3e
       0.034148827 0.11547589 -0.119500905 0.15397781
000060 4c 84 47 3e dc 2c 92 bc 94 0f 46 3e 67 f2 a3 bd
       0.19484061 -0.017843656 0.1934188 -0.08005219
000070 7e 41 20 3e 9b 99 17 3e 41 b2 c2 bc e7 0f 79 bd
       0.15649983 0.1480469 -0.023766639 -0.06080618
000080 f3 07 e1 3d d0 63 dd 3d 34 aa 6b 3e 05 cd d3 3d
       0.10987844 0.10810053 0.23014146 0.10341839
000090 ae c6 48 3e 58 1e 43 be e0 28 92 3d 07 b3 af bd
       0.1960704 -0.19054544 0.071367025 -0.08579069
0000a0 00 90 8d 3d d5 ae 59 bd a7 48 ac 3d a9 92 18 3b
       0.069122314 -0.05314525 0.08412295 0.0023280776
0000b0 27 d0 ae bd 28 bd fe 3d 6d 7c c1 bd da 2d f2 3e
       -0.08535796 0.124384224 -0.094475605 0.47300607
0000c0 07 cf 27 3e 9c 4e 39 3e f1 5f 91 3e a6 c8 2e 3e
       0.16387568 0.18096393 0.2839351 0.17068729
0000d0 98 cd 85 3e 92 6a d0 3e f9 7d a3 3e 72 43 3d 3d
       0.26133418 0.40706307 0.31932047 0.0462069
0000e0 ce a8 89 3e a3 cb 60 3d c0 f5 00 3e 3f c2 48 3e
       0.268866 0.054881703 0.12593746 0.19605349
0000f0 0b 5c 88 3e 7a db dc 3d 00 3c aa 3e 3e 6f 3e 3e
       0.26632723 0.10784049 0.332489 0.18597123

lstm.bias_hh_l0 f4 [64]
000000 8b 1a f8 3d cc 31 80 3d 8f 2c 8d 3e 66 85 93 3d
       0.12114438 0.06259498 0.27573058 0.07203178
000010 0c 3c d4 3d 8b 04 b6 3e 4f 82 99 3e 65 a5 80 3d
       0.103630155 0.3555034 0.2998223 0.062815465
000020 86 0b 3e 3c 44 07 c1 3c 44 15 c5 bb 46 10 d7 3d
       0.011599427 0.023563035 -0.006014498 0.10501151
000030 63 d8 76 3d 35 54 92 3d ed ce a3 3e 5b e2 4d be
       0.060264956 0.071449675 0.3199381 -0.20105879
000040 4d 21 a3 3d 24 75 17 3e 61 4d c8 3d 46 20 1d 3e
       0.07965336 0.1479078 0.09780384 0.15344343
000050 42 90 35 3d bc 92 01 bd fa 82 ed bd 58 ac 1d 3e
       0.044327028 -0.031634077 -0.115972474 0.15397775
000060 26 7a 47 3e 4c 1e 90 bc 90 21 40 3e 30 88 a4 3d
       0.1948019 -0.017592572 0.18762803 0.08033788
000070 7e 41 20 3e 9f 99 17 3e bc 15 ca bd fa b8 31 be
       0.15649983 0.14804696 -0.09867427 -0.17355719
000080 c5 49 2c 3d 44 38 ea 3d 3e f7 60 3e 8f 9e d4 3d
       0.04206254 0.11436513 0.21969315 0.10381805
000090 28 e4 48 3e bb 15 f4 bd f1 d7 53 bc 2b 86 b8 bd
       0.19618285 -0.11918207 -0.012929902 -0.090099655
0000a0 92 3a 3f be c4 fd bd bd 1a 6f 5f 3d 40 c3 e5 3d
       -0.18674687 -0.092769176 0.054549314 0.112188816
0000b0 ef e9 b1 bd 4d 7f ca 3d c3 83 b0 3d 8a 71 cb 3e
       -0.086871974 0.09887562 0.086188816 0.3973506
0000c0 7b 71 27 3e cc 12 9d 3d 7b c7 91 3e ee 9f 50 3e
       0.16351883 0.07669601 0.28472504 0.20373508
0000d0 a7 a1 85 3e 1d 90 db 3e 26 01 a4 3e 50 85 ab 3e
       0.26099893 0.42883387 0.32032126 0.33500147
0000e0 ca a0 86 3e 26 14 b8 bd c0 63 92 bc 92 42 18 3e
       0.26294547 -0.08988218 -0.01786983 0.14869145
0000f0 96 dd 49 3e 16 f0 04 3e a5 76 b0 3e 4c 39 97 3e
       0.19713435 0.1298221 0.3446552 0.29535902

fc.weight f4 [4, 16]
000000 af a4 dc be b0 93 9e 3f 5b 98 e6 3f c9 e4 cf 3f
       -0.43094394 1.2388821 1.8015245 1.6241695
000010 b1 01 bc 3f d5 d6 11 c0 7f 5c 2b 3d 9e 7f 98 bf
       1.4688016 -2.2787373 0.041836258 -1.1913946
000020 ec 52 7e 3f db 2e 65 be f6 87 b4 bf c9 97 82 3f
       0.9934528 -0.22381155 -1.4103992 1.0202571
000030 db 5f b7 bf 17 2a b7 3f 05 67 a7 3f b3 ee d3 bf
       -1.4326128 1.430972 1.3078314 -1.655722
000040 0d cc 35 3f 21 a1 b7 3c a9 e4 ae bd 0b ff b9 bc
       0.7101448 0.0224157 -0.08539707 -0.022704622
000050 ba ca 4b 3d ed f5 8f bd 70 9b 87 bc 80 82 2b be
       0.049753882 -0.070293285 -0.01655361 -0.16749
000060 95 4f 5a 3e 74 d2 14 3d 8a 64 33 bd 10 cf a0 bd
       0.2131942 0.036333516 -0.043797053 -0.07851994
000070 d0 c5 07 3d 33 bf a8 bc de f0 32 be ce 24 01 be
       0.033147633 -0.020598983 -0.17474696 -0.12611696
000080 4b c8 4d 3c 7d 60 0f 3e f0 08 2a be 1a 1c 04 3e
       0.012559961 0.14001651 -0.16604972 0.12901345
000090 f3 5a d9 3d a3 23 7c 3c 66 86 2c bd 5f d1 96 be
       0.1061305 0.015389356 -0.04212036 -0.29456612
0000a0 03 d9 67 3e 19 5f f2 bd 38 ff d6 bd 24 d5 f0 3d
       0.22641377 -0.11834545 -0.10497898 0.11759403
0000b0 64 ce 1e be 51 c5 12 3e f6 00 84 bd c9 36 ab 3d
       -0.1550842 0.14333083 -0.06445496 0.08360059
0000c0 ef 77 9d 3f 26 ce 8c bd 92 7b eb 3d 00 84 6c bd
       1.2302226 -0.06875257 0.114981785 -0.057743073
0000d0 86 dd 00 be 56 87 76 bd 0f eb 7b 3d a6 3b 94 3e
       -0.12584504 -0.06018766 0.061503466 0.28951758
0000e0 16 6d 07 be 0f 55 c5 3d e7 02 64 3e b5 44 5a be
       -0.13225207 0.09635364 0.22266732 -0.21315272
0000f0 d0 41 58 3d 55 dd d0 bd 91 af 4b be 60 8e 5d be
       0.05279714 -0.10198466 -0.19891192 -0.21636343

fc.bias f4 [4]
000000 42 bd 8d 3f ee ac 9c 3d 01 71 c5 3e 49 be 06 be
       1.1073382 0.07650171 0.38562778 -0.13158526
