weights/16_hidden_lstm_R_PG.pth (torch_old, 6905 bytes, 6 tensors)

lstm.weight_ih_l0 f4 [64, 4]
0.08071234 0.002118252 -0.0033583622 -0.0024465078 -2.195746e-06 2.1301169e-10 -1.3236603e-10 1.1439552e-10
-0.00024846988 9.459004e-09 -4.9711723e-08 5.5057995e-08 -1.979096e-05 9.548361e-08 4.258337e-08 8.341821e-08
-7.1012415e-05 4.3458535e-09 -2.1151518e-09 8.1882806e-10 -1.565334e-07 1.0996248e-10 -4.969282e-10 6.007667e-10
-0.016874354 -0.0009275893 -0.0009800302 0.00076898397 0.0816611 0.0021047336 -0.0033961379 -0.002508462
-6.811854e-08 1.440177e-09 -6.088168e-09 8.265492e-09 -1.2291423e-11 -1.9113456e-12 -2.9356097e-12 3.4563318e-12
-0.0014539047 1.8091154e-05 -4.1203817e-05 4.7834532e-05 -8.7854335e-11 6.4896195e-13 -1.616875e-12 2.7247148e-12
-0.01511269 -0.0016924422 -0.00039041438 0.001007403 0.0033325402 -0.0018051931 0.00033067015 0.0005664316
-5.8812716e-10 1.216095e-12 -4.004482e-12 3.2763783e-12 -0.092854194 0.00041525674 0.01070155 0.0009743074
-0.09926314 0.003162638 -0.009823697 0.009827494 -4.0953263e-09 2.7066094e-10 -2.67981e-10 2.7464214e-10
-7.170429e-05 -3.9542034e-10 -6.674643e-08 6.7869316e-08 -1.4604139e-05 9.5124086e-08 3.5044945e-08 7.4307536e-08
-7.488714e-07 7.637068e-09 -2.818194e-09 3.7345123e-09 -1.7659366e-07 1.2973596e-10 -5.7663146e-10 6.3750666e-10
0.0065332134 -0.0009971941 -0.0005549317 -0.00066340034 -0.10058103 0.0031775336 -0.009943761 0.009946876
-2.8325148e-08 1.0582053e-09 -7.1750494e-09 7.826388e-09 -5.8959443e-12 -3.5241092e-12 -4.1485717e-12 4.6658072e-12
-0.0012818171 1.5257366e-05 -4.1851574e-05 4.0723062e-05 -4.603479e-11 8.798975e-13 -2.285138e-12 3.2837118e-12
0.019870965 -0.0021585834 0.00071949215 -0.0017630104 0.035926923 -0.0030247876 0.0028140682 -0.0036195496
-2.8685332e-11 3.7327688e-13 -7.787171e-12 9.974454e-12 0.10882665 -0.005575909 0.020686373 -0.01988132
-0.06350197 0.009175443 0.04373488 -0.012355406 7.034417e-06 -8.0527275e-07 -8.609583e-06 4.1287207e-05
0.00011218298 -2.952591e-06 -0.00012730625 0.0002319939 -6.699359e-05 1.5401083e-05 0.00013134436 -0.0002362966
5.7161782e-05 -3.1697248e-06 -8.423814e-05 0.00025969022 -2.7590215e-06 5.8592894e-07 4.447681e-06 -1.1806739e-05
-0.045167238 0.0026414932 -0.0040511074 0.0011444027 -0.06395962 0.009516988 0.045081038 -0.013129824
1.2106664e-05 -2.6719995e-06 -2.1313019e-05 6.591594e-05 9.068351e-08 -1.8235335e-07 -1.8826191e-07 2.1645465e-07
0.002103092 -0.00017438026 -0.0010802815 0.0012343659 1.866194e-07 -2.0955203e-07 -2.3773592e-07 4.1769678e-07
0.05654806 -0.0026278822 0.0054813987 -0.0018962773 -0.064960346 0.002322947 -0.0058769025 0.0021803726
-3.675829e-07 2.732312e-07 9.291548e-07 -3.1246232e-06 -0.11224231 -0.0017473431 0.028061226 -0.050230388
0.08956204 0.0017639518 -0.003716864 -0.0034913872 -1.9332532e-05 1.9884776e-10 -1.1781631e-10 1.1865178e-10
-0.0005107744 9.920988e-09 -4.682636e-08 4.9858453e-08 -2.1578358e-05 -4.3743813e-09 3.260393e-08 1.04258824e-07
-9.7151766e-05 4.2840296e-09 -2.1299287e-09 1.2017699e-09 -4.4417337e-07 9.293775e-11 -5.7585586e-10 6.414695e-10
-0.025785426 -0.0014512703 -0.0016274563 0.0020941002 0.09059946 0.0017405775 -0.003720985 -0.0035971336
-8.9731564e-08 1.3147092e-09 -5.9386394e-09 8.258659e-09 -2.2602559e-11 -1.295734e-12 -2.5713964e-12 3.4400386e-12
-0.0016391322 1.6233462e-05 -3.5836918e-05 3.859521e-05 -1.142199e-10 2.2921012e-13 -1.2839853e-12 2.3298403e-12
-0.022152646 -0.0021983387 -0.0013839838 0.0034171052 -0.0050885333 -0.002319308 -0.0005722609 0.0048139584
-5.5246066e-09 9.356792e-13 -3.0052143e-12 2.7365942e-12 0.047548898 -0.004345773 0.011167341 -0.0077211517
00000000: 834c a53d 5fd2 0a3b f817 5cbb 9755 20bb
00000010: a15a 13b6 7635 6a2f ba89 11af f48e fb2e
00000020: 1045 82b9 2481 2232 9e82 55b3 e878 6c33
00000030: c304 a6b7 ab0c cd33 e9e4 3633 a523 b333
00000040: 80ec 94b8 8852 9531 255a 11b1 e713 6130
00000050: 9313 28b4 5fcf f12e 3798 08b0 3323 2530
00000060: 163c 8abc 7729 73ba 5b74 80ba a495 493a
00000070: ef3d a73d 92ef 093b bd91 5ebb 0265 24bb
00000080: 9048 92b3 b9ef c530 1830 d1b1 0500 0e32
00000090: a63b 58ad be7f 06ac 3e93 4eac bd37 732c
000000a0: f290 beba 75c2 9737 43d2 2cb8 f0a1 4838
000000b0: 9831 c1ae a3aa 362b 108e e3ab 19bc 3f2c
000000c0: 379b 77bc f0d4 ddba 88b0 ccb9 d60a 843a
000000d0: bf66 5a3b 3b9c ecba cc5d ad39 957c 143a
000000e0: c5a9 21b0 7126 ab2b 2be5 8cac fc8d 662c
000000f0: 572a bebd d1b6 d939 8e55 2f3c aa68 7f3a
00000100: 794a cbbd 4344 4f3b 92f3 20bc 7f03 213c
00000110: dfb6 8cb1 24cc 942f f952 93af 72fc 962f
00000120: f35f 96b8 7762 d9af 3d56 8fb3 8dbf 9133
00000130: 4d04 75b7 0547 cc33 5384 1633 0093 9f33
00000140: 0d06 49b5 2e34 0332 31aa 41b1 1e51 8031
00000150: b29d 3db4 6da5 0e2f d580 1eb0 8b3c 2f30
00000160: 9114 d63b 48b4 82ba d678 11ba 0be8 2dba
00000170: 6dfd cdbd 2b3e 503b 28eb 22bc 39f8 223c
00000180: a94f f3b2 4a70 9130 6788 f6b1 d274 0632
00000190: f271 cfac b5fc 77ac 03f7 91ac db29 a42c
000001a0: a502 a8ba e3f9 7f37 c989 2fb8 0ece 2a38
000001b0: 9176 4aae 4cab 772b 63cd 20ac 1812 672c
000001c0: 6fc8 a23c 0577 0dbb 4d9c 3c3a d014 e7ba
000001d0: 1c28 133d 843b 46bb 3b6c 383b f735 6dbb
000001e0: a051 fcad de22 d22a 4dfe 08ad f378 2f2d
000001f0: 82e0 de3d 1db6 b6bb 7876 a93c 26de a2bc
00000200: 520d 82bd 9954 163c 5823 333d 546e 4abc
00000210: 2f09 ec36 ec29 58b5 e171 10b7 cd2b 2d38
00000220: c743 eb38 2125 46b6 837d 05b9 6343 7339
00000230: e97e 8cb8 9331 8137 7cb9 0939 63c6 77b9
00000240: ffc0 6f38 75b7 54b6 02a9 b0b8 0827 8839
00000250: a127 39b6 bb48 1d35 4a3d 9536 8f15 46b7
00000260: 4801 39bd e71c 2d3b 27bf 84bb c8ff 953a
00000270: 43fd 82bd 24ed 1b3c e5a6 383d 791e 57bc
00000280: ba1d 4b37 9a50 33b6 5cc9 b2b7 5a3c 8a38
00000290: c9bd c233 e8cc 43b4 0a25 4ab4 9a6a 6834
000002a0: 07d4 093b d8d9 36b9 3b98 8dba 72ca a13a
000002b0: 8d61 4834 3901 61b4 5a44 7fb4 cf3f e034
000002c0: f09e 673d 8c38 2cbb 4e9d b33b 828c f8ba
000002d0: ee09 85bd 953c 183b 0893 c0bb 95e4 0e3b
000002e0: 3658 c5b4 9cb0 9234 086b 7935 9eb0 51b6
000002f0: 4cdf e5bd 1b07 e5ba a8e0 e53c 61be 4dbd
00000300: 4e6c b73d 6734 e73a a196 73bb c2cf 64bb
00000310: 4c2c a2b7 aba2 5a2f 588a 01af 8275 022f
00000320: 7de5 05ba f770 2a32 211e 49b3 f323 5633
00000330: 2c03 b5b7 774d 96b1 6608 0c33 e5e4 df33
00000340: f5bd cbb8 b932 9331 1a5e 12b1 852b a530
00000350: b976 eeb4 4d5f cc2e 414a 1eb0 6753 3030
00000360: f53b d3bc 8d38 beba 5f50 d5ba 2c3d 093b
00000370: 368c b93d 1724 e43a c5db 73bb e3bd 6bbb
00000380: 73b2 c0b3 38b1 b430 d30c ccb1 f7e1 0d32
00000390: 70d0 c6ad bd5b b6ab 29f2 34ac 3a12 722c
000003a0: 26d8 d6ba 182d 8837 994f 16b8 4be1 2138
000003b0: 162c fbae a908 812a 72b4 b4ab acf2 232c
000003c0: 7779 b5bc 0112 10bb ca66 b5ba 83f1 5f3b
000003d0: b6bd a6bb 88ff 17bb c703 16ba 69be 9d3b
000003e0: f4d2 bdb1 65af 832b 2179 53ac 1992 402c
000003f0: a2c2 423d fc66 8ebb 39f7 363c b701 fdbb

lstm.weight_hh_l0 f4 [64, 16]
0.00031503063 -1.0750092e-06 1.847368e-05 -6.9205716e-06 -1.3701065e-06 1.8681669e-06 -0.0008373459 0.0003191033
-6.1399296e-06 -3.2918177e-07 0.000309456 -1.5695484e-07 0.00074851554 -0.00054039125 3.6611883e-07 0.00028304043
-1.38813995e-11 1.4334095e-14 1.0683124e-12 -2.6765601e-13 3.5426713e-13 5.1632354e-14 -2.916645e-11 -1.2849123e-11
-8.197869e-14 -2.1053946e-15 6.6599434e-11 -1.6237042e-15 1.9633344e-11 -2.0236148e-11 -1.3737604e-16 3.403469e-11
4.4794017e-08 -5.1522497e-12 -2.2243281e-10 1.5053223e-10 -7.852863e-11 -1.385925e-11 4.1921332e-08 4.4789253e-08
2.5212423e-12 1.860443e-12 -2.5920844e-08 5.09116e-13 -4.51277e-08 4.0669075e-08 -1.1296649e-12 6.201725e-08
2.2837868e-08 1.5200466e-11 -6.295829e-11 -9.765489e-11 5.742172e-11 -1.12275654e-10 -5.1543516e-09 2.3165288e-08
7.341944e-11 -8.695e-14 -2.1649789e-09 5.156314e-12 2.5127254e-09 7.917431e-09 6.760297e-12 1.5281277e-08
-1.8777229e-09 6.422128e-13 2.923319e-11 -2.5698952e-11 1.10987435e-11 2.0966852e-12 -2.2083406e-09 -1.8685253e-09
-3.445511e-12 -1.815476e-13 3.2031031e-09 -6.896331e-14 2.0189723e-09 -1.5648272e-09 8.231184e-14 -1.7417505e-09
3.067984e-10 -1.9436557e-14 -6.973328e-13 -1.5528669e-12 -5.413928e-13 1.1726486e-14 1.9620126e-10 3.086743e-10
7.496192e-14 -4.0255342e-15 -3.3613688e-11 1.9656528e-14 -2.2087628e-10 2.7011615e-10 1.41986735e-14 3.5297149e-10
0.00072571676 2.147442e-07 -1.6630627e-05 1.0386694e-05 -2.1643464e-06 -1.1237173e-06 0.0010628215 0.000725093
2.759634e-06 1.8585396e-07 -0.000286705 5.6950512e-08 -0.0010568751 0.00095476245 -1.4353472e-07 0.0009871557
0.00033195235 -1.084781e-06 1.8512e-05 -6.7269025e-06 -1.3991475e-06 1.8745748e-06 -0.00083851215 0.00033620445
-6.187718e-06 -3.3121913e-07 0.0003100418 -1.5824293e-07 0.0007494782 -0.00053875986 3.6860143e-07 0.00029766897
2.0018331e-09 2.4980763e-13 -7.666912e-13 -2.3877408e-12 3.794372e-14 9.465073e-13 6.104467e-10 2.0019708e-09
-5.474413e-13 -9.307342e-14 -8.1234096e-11 -7.2433894e-14 -7.949413e-10 1.8596358e-09 -4.166654e-15 2.4475564e-09
2.9878543e-12 -1.6227189e-16 -3.5230715e-15 4.0857456e-15 -1.9628186e-15 -3.839212e-17 1.0994869e-12 3.0061528e-12
1.0183213e-15 5.190451e-19 -2.6148314e-14 -2.7351256e-18 -1.5933702e-12 2.6009325e-12 -9.178207e-18 2.2097e-12
4.414385e-05 -4.570954e-08 -8.2283896e-07 3.4506365e-07 -3.2069968e-07 -1.20135555e-08 4.592671e-05 4.4119413e-05
7.1221016e-09 -1.191256e-08 -3.1797545e-06 2.3701323e-09 -4.7457208e-05 4.486661e-05 -5.607517e-10 5.235413e-05
7.644469e-13 5.1629222e-17 -8.32432e-16 -2.3497219e-14 -7.116363e-16 -3.8680696e-15 6.561458e-13 7.710596e-13
1.4022643e-15 -2.0948357e-17 -7.857501e-13 -5.385163e-18 -6.478661e-13 7.149137e-13 -3.690443e-17 1.2196362e-12
0.0006431464 4.051045e-07 -1.8931076e-05 1.2208548e-05 -1.7451226e-06 -1.3563259e-06 0.0011094824 0.00064300507
4.0138943e-06 2.2745851e-07 -0.00030447688 7.713165e-08 -0.0010733795 0.0009368306 -2.1070831e-07 0.00079505006
0.0006586474 1.6899527e-07 -3.1889176e-05 1.40984075e-05 -4.2708775e-06 -1.728046e-06 0.001309617 0.00065731694
4.5732495e-06 4.5015398e-07 -0.00039172597 1.1190917e-07 -0.0012692879 0.0010881026 -3.7003423e-07 0.000982901
3.6134e-12 -8.301974e-17 -6.096093e-15 1.19592844e-14 -2.6527103e-15 1.3514076e-15 1.6794358e-12 3.6800073e-12
1.3735625e-15 1.3058423e-17 -7.8340966e-14 9.470036e-18 -2.1793648e-12 2.0484543e-13 -3.0343404e-18 3.8798673e-12
-0.00070395827 9.1807806e-07 -2.142102e-05 -5.3739564e-06 -4.9295693e-07 -1.5333287e-06 0.0012135962 -0.00070412626
5.858996e-06 5.951421e-07 -0.00040313238 1.3754335e-07 -0.0010834096 0.0006665537 -6.532772e-07 -0.00095534476
00000000: b22a a539 0949 90b5 edf7 9a37 4237 e8b6
00000010: 80e4 b7b5 babd fa35 5581 5bba 524d a739
00000020: 9805 ceb6 66ba b0b4 7b3e a239 6b87 28b4
00000030: 0738 443a 0ba9 0dba fd8e c434 0b65 9439
00000040: 4434 74ad 2c1c 8128 035a 962b 4cad 96aa
00000050: 466f c72a 0d88 6829 8146 00ae 4e0b 62ad
00000060: 7f99 b8a9 adb5 17a7 2674 922e 1d00 eaa6
00000070: 5cb2 ac2d c1ff b1ad 4062 1ea5 a8af 152e
00000080: 8b63 4033 5747 b5ac 4591 74af 0e83 252f
00000090: b0af acae 83d0 73ad fe0c 3433 4e5e 4033
000000a0: aa6a 312c c3ea 022c 8aa8 deb2 ad4d 0f2b
000000b0: 6ed2 41b3 1fac 2e33 78fc 9eab 582e 8533
000000c0: 012d c432 68b4 852d 5e72 8aae d1be d6ae
000000d0: 1c8b 7c2e 93e5 f6ae 281a b1b1 02fd c632
000000e0: 7873 a12e 43cb c3a9 b6c6 14b1 f36b b52c
000000f0: 55ac 2c31 3b05 0832 58db ed2c e243 8332
00000100: 4009 01b1 4fc4 342b a591 002e e50c e2ad
00000110: 4c40 432d 868a 132c 8ac1 17b1 7267 00b1
00000120: cf74 72ac 8867 4caa 961d 5c31 a44a 9ba9
00000130: 23be 0a31 7611 d7b0 8c59 b929 6662 efb0
00000140: 09aa a82f a611 afa8 2048 44ab ed8b daab
00000150: 7663 18ab df3e 5328 bfb9 572f 0cb2 a92f
00000160: 9bcc a829 0009 91a7 a6d5 13ae de0c b128
00000170: 25db 72af 787f 942f d3c7 7f28 520c c22f
00000180: 073e 3e3a 7094 6634 0082 8bb7 8342 2e37
00000190: 303f 11b6 a2d2 96b5 5f4e 8b3a 2b14 3e3a
000001a0: 2732 3936 268f 4734 e550 96b9 c099 7433
000001b0: d886 8aba 0649 7a3a 861e 1ab4 7363 813a
000001c0: e409 ae39 cb98 91b5 384a 9b37 a7b7 e1b6
000001d0: 58ca bbb5 e699 fb35 99cf 5bba 9944 b039
000001e0: 18a0 cfb6 69d2 b1b4 1b8d a239 7ce9 29b4
000001f0: a178 443a 903b 0dba 32e4 c534 7410 9c39
00000200: 9f90 0931 13a1 8c2a eccd 57ab b705 28ac
00000210: 21e2 2a29 8535 852b 5ecc 2730 0b93 0931
00000220: 4e17 1aab 2c95 d1a9 bba2 b2ae 4c1b a3a9
00000230: 0583 5ab0 1e96 ff30 9a1e 96a7 de31 2831
00000240: 6640 522c 3516 3ba5 33dd 7da7 5a34 9327
00000250: 9d6f 0da7 6a0d 31a4 31bd 9a2b 098a 532c
00000260: 6dc1 9226 f031 1921 e885 eba8 10d1 49a2
00000270: 363f e0ab 3c06 372c db4e 29a3 6b7e 1b2c
00000280: 1927 3938 2c52 44b3 10e1 5cb5 3041 b934
00000290: a12c acb4 2d64 4eb2 6ea1 4038 dc0c 3938
000002a0: abb6 f431 fea7 4cb2 c463 55b6 cfdf 2231
000002b0: ca0c 47b8 282f 3c38 6523 1ab0 d296 5b38
000002c0: 342c 572b 0719 6e24 a4ee 6fa6 e6a4 d3a8
000002d0: 7e1d 4da6 a55c 8ba7 4ab0 382b b308 592b
000002e0: 6c16 ca26 e936 c1a3 432b 5dab 6dad c6a2
000002f0: ac5b 36ab f63a 492b 1031 2aa4 06a6 ab2b
00000300: d398 283a 237d d934 2dce 9eb7 50d3 4c37
00000310: f539 eab5 010b b6b5 0d6c 913a 578f 283a
00000320: 17af 8636 523b 7434 32a2 9fb9 93a3 a533
00000330: a4b0 8cba a395 753a 0f3f 62b4 e86a 503a
00000340: 14a9 2c3a 1175 3534 bec0 05b8 3388 6c37
00000350: 8f4e 8fb6 35ef e7b5 74a7 ab3a cb4f 2c3a
00000360: ea73 9936 b1ac f134 9260 cdb9 b852 f033
00000370: 3c5e a6ba aa9e 8e3a 1ea9 c6b4 afd4 803a
00000380: 3a45 7e2c 346e bfa4 89a2 dba7 7770 5728
00000390: de25 3fa7 24c2 c226 0d5c ec2b 8f7a 812c
000003a0: 83f3 c526 a9e2 7023 7e68 b0a9 fbb0 2e23
000003b0: f25b 19ac ada2 662a 12e5 5fa2 bd82 882c
000003c0: d789 38ba d871 7635 4ab1 b3b7 ef51 b4b6
000003d0: be53 04b5 c6cc cdb5 8811 9f3a 1d95 38ba
000003e0: 6498 c436 dbc1 1f35 835b d3b9 a1af 1334
000003f0: 3201 8eba a9bb 2e3a de5c 2fb5 1a70 7aba

lstm.bias_ih_l0 f4 [64]
-0.0009437299 -1.4368955e-10 -4.3828535e-08 -7.771517e-08 -2.0103965e-09 -6.1108973e-10 -0.0009887276 -0.00095364323
-4.5508797e-09 -2.4732137e-12 -3.9117756e-05 -1.5230163e-12 -0.0008028767 -0.00042162457 -4.5252534e-12 0.0041673486
-0.004022307 -2.1487787e-10 -6.156451e-08 -6.165996e-08 -5.9052097e-10 -5.278337e-10 -0.0008564031 -0.004075507
-3.2526193e-09 -2.6485244e-12 -3.9032464e-05 -9.457364e-13 -0.00038248074 0.0005275625 -5.3081576e-12 0.010916696
0.024828887 -2.1811804e-06 -4.3230102e-05 8.165913e-05 -2.3214501e-05 -1.8252596e-06 -0.0017285717 0.025636826
1.3027694e-07 -8.56759e-08 -0.00055836106 -1.4297103e-08 0.00230829 -0.0025791558 1.02606464e-07 0.022153916
-0.0011604332 -1.1931765e-10 -3.820295e-08 -7.157308e-08 -1.8984345e-09 -5.078601e-10 -0.0013995024 -0.0011549523
-4.6247774e-09 -2.519721e-12 -3.1577096e-05 -1.8669682e-12 -0.0015341396 -0.0015520685 -4.0353415e-12 0.005325938
00000000: a464 77ba 03fd 1daf fc3d 3cb3 5ee4 a6b3
00000010: 4527 0ab1 9ef9 27b0 3198 81ba eafd 79ba
00000020: f65d 9cb1 7509 2eac 5f12 24b8 7258 d6ab
00000030: 2578 52ba 7e0d ddb9 dc37 9fac 418e 883b
00000040: 8fcd 83bb be42 6caf 7335 84b3 ec69 84b3
00000050: 3852 22b0 ff16 11b0 3d80 60ba d58b 85bb
00000060: af84 5fb1 935f 3aac cab6 23b8 bf19 85ab
00000070: b287 c8b9 1f4c 0a3a a2c3 baac f1db 323c
00000080: f365 cb3c 6560 12b6 f851 35b8 6940 ab38
00000090: c3bc c2b7 71fb f4b5 3e91 e2ba 5204 d23c
000000a0: 41e2 0b34 d3fc b7b3 fa5e 12ba 539f 75b2
000000b0: ae46 173b 0e07 29bb 8058 dc33 217c b53c
000000c0: ad19 98ba ef30 03af 9614 24b3 b8b3 99b3
000000d0: 9d75 02b1 7a99 0bb0 826f b7ba c561 97ba
000000e0: f9e7 9eb1 424f 31ac a671 04b8 4f60 03ac
000000f0: 2f15 c9ba c76e cbba 20fb 8dac 3585 ae3b

lstm.bias_hh_l0 f4 [64]
-0.0009437299 -1.4368955e-10 -4.3828535e-08 -7.771517e-08 -2.0103965e-09 -6.1108973e-10 -0.0009887276 -0.00095364323
-4.5508797e-09 -2.4732137e-12 -3.9117756e-05 -1.5230163e-12 -0.0008028767 -0.00042162457 -4.5252534e-12 0.0041673486
-0.004022307 -2.1487787e-10 -6.156451e-08 -6.165996e-08 -5.9052097e-10 -5.278337e-10 -0.0008564031 -0.004075507
-3.2526193e-09 -2.6485244e-12 -3.9032464e-05 -9.457364e-13 -0.00038248074 0.0005275625 -5.3081576e-12 0.010916696
0.024828887 -2.1811804e-06 -4.3230102e-05 8.165913e-05 -2.3214501e-05 -1.8252596e-06 -0.0017285717 0.025636826
1.3027694e-07 -8.56759e-08 -0.00055836106 -1.4297103e-08 0.00230829 -0.0025791558 1.02606464e-07 0.022153916
-0.0011604332 -1.1931765e-10 -3.820295e-08 -7.157308e-08 -1.8984345e-09 -5.078601e-10 -0.0013995024 -0.0011549523
-4.6247774e-09 -2.519721e-12 -3.1577096e-05 -1.8669682e-12 -0.0015341396 -0.0015520685 -4.0353415e-12 0.005325938
00000000: a464 77ba 03fd 1daf fc3d 3cb3 5ee4 a6b3
00000010: 4527 0ab1 9ef9 27b0 3198 81ba eafd 79ba
00000020: f65d 9cb1 7509 2eac 5f12 24b8 7258 d6ab
00000030: 2578 52ba 7e0d ddb9 dc37 9fac 418e 883b
00000040: 8fcd 83bb be42 6caf 7335 84b3 ec69 84b3
00000050: 3852 22b0 ff16 11b0 3d80 60ba d58b 85bb
00000060: af84 5fb1 935f 3aac cab6 23b8 bf19 85ab
00000070: b287 c8b9 1f4c 0a3a a2c3 baac f1db 323c
00000080: f365 cb3c 6560 12b6 f851 35b8 6940 ab38
00000090: c3bc c2b7 71fb f4b5 3e91 e2ba 5204 d23c
000000a0: 41e2 0b34 d3fc b7b3 fa5e 12ba 539f 75b2
000000b0: ae46 173b 0e07 29bb 8058 dc33 217c b53c
000000c0: ad19 98ba ef30 03af 9614 24b3 b8b3 99b3
000000d0: 9d75 02b1 7a99 0bb0 826f b7ba c561 97ba
000000e0: f9e7 9eb1 424f 31ac a671 04b8 4f60 03ac
000000f0: 2f15 c9ba c76e cbba 20fb 8dac 3585 ae3b

fc.weight f4 [4, 16]
-0.17465538 4.220972e-06 -3.5228317e-05 -3.9984592e-05 2.5965326e-05 -3.3431481e-06 0.04178186 -0.17800575
1.0272778e-05 6.7133215e-08 -0.0020207993 1.2609844e-07 -0.05528431 0.06495077 -2.5463868e-07 0.13071035
-0.0031930313 1.1164755e-06 2.1704276e-05 0.000110919886 6.601662e-06 9.870386e-07 0.00058068935 -0.0032422035
-4.2958777e-06 -3.9826595e-08 0.00033197168 -1.04151304e-07 -0.00067467516 0.0005528072 1.5792372e-07 0.0039726365
-0.0003976376 1.3943302e-06 2.675882e-06 -2.0523414e-05 6.2542517e-06 -5.336438e-07 0.00034245444 -0.00041583498
3.0356903e-06 4.031711e-08 -9.032629e-06 6.6565065e-08 -0.00045701786 0.0004084674 -1.8397306e-07 0.0005378753
-0.0039586555 -5.996915e-06 1.8144416e-05 0.00013676392 -2.5129491e-05 9.919696e-06 -0.00034734604 -0.0039974744
-2.3116821e-05 8.073531e-08 0.00068096095 1.835982e-07 0.00047427777 0.0002915719 8.184791e-07 0.0047780634
00000000: dcd8 32be e0a1 8d36 1ec2 13b8 21b5 27b8
00000010: 1dd0 d937 d95a 60b6 7523 2b3d 2447 36be
00000020: 3f59 2c37 e02a 9033 636f 04bb ad65 0734
00000030: cd71 62bd e904 853d 46b5 88b4 efd8 053e
00000040: 2d42 51bb ced9 9535 9411 b637 a99d e838
00000050: d883 dd36 637a 8435 6739 183a 267b 54bb
00000060: 4f25 90b6 ce0d 2bb3 7c0c ae39 c9a9 dfb3
00000070: afdc 30ba 43ea 103a be91 2934 e42c 823b
00000080: 047a d0b9 d224 bb35 4d93 3336 b229 acb7
00000090: 9ddb d136 b93f 0fb5 758b b339 6d04 dab9
000000a0: c3b8 4b36 2229 2d33 d98a 17b7 88f2 8e33
000000b0: e69b efb9 9127 d639 218a 45b4 3300 0d3a
000000c0: 9cb7 81bb 1c39 c9b6 d634 9837 4968 0f39
000000d0: 2ccd d2b7 c56c 2637 ff1b b6b9 3ffd 82bb
000000e0: ffea c1b7 b560 ad33 8482 323a 1723 4534
000000f0: 7ca8 f839 1ede 9839 75b5 5b35 4d91 9c3b

fc.bias f4 [4]
0.028018773 0.000582367 0.00034937361 0.0022114364
00000000: a087 e53c fda9 183a 222c b739 bfed 103b
