weights/16_hidden_lstm_Q.pth (torch_old, 6905 bytes, 6 tensors)

lstm.weight_ih_l0 f4 [64, 4]
00000000: 9e30 2ebd 3b50 5a3e a797 f03e cbc9 8bbd
00000010: 9be7 a43d 030a 76be 2a0b 183f 211d dcbe
00000020: 5e28 6b3d c894 3ebd 3810 d43e be77 18be
00000030: d5dc 013f af8d a8be 74ca 303d 5ea3 dabe
00000040: 5611 313e 2f7e a0be 5dab 023d cd8f 193e
00000050: e9c7 23bc 70bd 17bf 88f1 a9bd 08a5 903c
00000060: 57b2 4abe 9c46 163e c7c9 283f a635 debe
00000070: 16fd 083f 2fb0 3a3d b947 963e 291c a3be
00000080: 8f62 153e 4a25 3bbc 350a 053f 37f2 c4be
00000090: 5a8b e6be a807 d93c eccb 1a3f 3d81 0fbf
000000a0: 79a6 8bbe 2971 de3d 1c65 1d3f 1064 ebbe
000000b0: f602 093f a227 cbbd 3cd6 e83e 7be1 00bf
000000c0: 08c9 68bd 79b8 56bd fdea ec3e 6f69 85be
000000d0: f384 f33e 7acb 1c3d ce47 a13e 2e00 9dbe
000000e0: fbb3 543e 9e8b 2ebf 891f 4bbe 253a 1b3d
000000f0: 1d63 133f 8968 c63d a432 b73e c607 b3be
00000100: 002f a8be a33f 933e 1123 f43e d1bd fbbe
00000110: a48a 183f 828a 0abf f0a2 823e 66fe 54be
00000120: cab4 abbe 35e3 78bc 6853 733e 8e88 b1be
00000130: 276e 8abe baeb 82be 622a 363e 227b a7be
00000140: 74d1 79be bb52 c03e 9afe 3a3f b11f 0ebf
00000150: 6487 c6be db16 13be 498d 2d3e 735a b7be
00000160: de63 02bf 2412 043e f420 d13e eaaa 11bf
00000170: 563e 41bf a96e f3be edb4 7c3e 111e debe
00000180: de5e e7be 3f6d 983c 3ed4 083f bfa2 e7be
00000190: 2ce5 0dbf 10a4 f83d 86f0 e23e 2710 1fbf
000001a0: ed76 20bf 2e40 113f db5c 273f 5058 50bf
000001b0: 910f f03e 9085 3dbf 910d 7b3e 82e4 a5bd
000001c0: d0b7 d6be 57d1 fa3e 11af 093f ab3a 27bf
000001d0: 2291 08bf 5f79 05bf ea5e 6d3e e326 10bf
000001e0: 4548 0bbd a5a6 9dbe 9642 de3e a2b1 0fbf
000001f0: 8c22 06bf 682c 933e 75d7 3e3c d188 32be
00000200: 5ae8 983e 54cd c4be 298f 06bf 8c45 233f
00000210: 1809 d0be 65af 1ebf ec9d d43e 96ba 0bbf
00000220: 6d49 b13e 9c93 a63b 4c1f 88be 1a10 bc3e
00000230: f90f 72be 8a74 68be 6f73 d83c c466 b23c
00000240: c01f bfbe 46b3 8f3e 0f2f 093e 53d3 e1be
00000250: 7bd3 b23e f616 3d3c 80ab 97be e1be b43e
00000260: 0983 a9be 4d24 47be a078 983e fd41 0fbe
00000270: 26ee fa3e 9fac 8c3f d11f 413d a1bb 9d3e
00000280: b04a b7be 02b2 0cbe ebcb 943d 2a7c cbbe
00000290: d5b7 4b3e 5c5b 403e 1c18 093d dc3b 943e
000002a0: 3b83 9d3e 65b1 fabc f8ad cf3e 0c23 d2be
000002b0: b3f4 cdbe bd2c 25bf ae48 643e 8edd 10bf
000002c0: 97bf 83be 1e72 133f 2ddf 403f 7505 edbe
000002d0: b88f 00bf 415e 18bf 57c9 943b 1b70 abbe
000002e0: 4b73 a73e 99a6 e33d 54da bbbd 5503 0f3e
000002f0: 8c03 12bf 9610 c23e a722 4b3e a770 12be
00000300: be77 803f 2ef6 32bf 40cb 11bf a52e ff3e
00000310: f6c5 523f 15df e8be 3224 14be 3522 403c
00000320: caa8 753f e77c 62bf e92c 16bf 24e2 8f3e
00000330: 410b 2e3f 032c 6abe 4981 1ebf afc1 c53e
00000340: e828 783f c041 55bf 94fe d9bd 5ab3 06bd
00000350: 99fb 823f d991 743f e0a0 39bf 5e82 4e3f
00000360: 7147 5b3f 9479 0cbf 31a4 a3be f77d 1b3d
00000370: 4efc 833f 1f2c 0ebe a7ce ee3d e205 72be
00000380: 235d 763f bbd7 32bf fd70 8bbe 741f abbd
00000390: 1029 6d3f 326e 2d3f 1c09 0fbf 9cf6 073f
000003a0: 79d3 5a3f 30b1 f0bd 2818 a13e e76c dcbe
000003b0: cd36 673f d70a dabd 4b4b 493e a6ee ddbe
000003c0: fa75 693f 0bb1 9dbf 5797 60be e16c bb3d
000003d0: bede 8c3f 2dcf aa3d d67e 89be f052 973e
000003e0: 033d 613f a512 2b3f e0ea 32bf 1815 463f
000003f0: 8905 253f 677c 513d 5e89 d63e 6779 cebe
-0.042526834 0.21319668 0.46990702 -0.06825598 0.08051988 -0.24027257 0.59392035 -0.42990974
0.057411544 -0.046528608 0.41418624 -0.14889428 0.5072759 -0.32920596 0.043161824 -0.42702764
0.1729177 -0.3134627 0.031901706 0.14996262 -0.009996393 -0.59273434 -0.082980216 0.017656818
-0.19794594 0.14675373 0.6593289 -0.43400306 0.5351118 0.045578178 0.29351595 -0.31857422
0.14588378 -0.011422465 0.519687 -0.38466045 -0.45028192 0.026492909 0.6046741 -0.56056577
-0.27275446 0.10861427 0.61482406 -0.4597478 0.53520143 -0.09919669 0.45475948 -0.50344056
-0.056832343 -0.05242202 0.46273032 -0.26057002 0.4756237 0.038279988 0.31500095 -0.306642
0.20771782 -0.6818179 -0.19836248 0.037897248 0.5757311 0.09687907 0.35780823 -0.34966868
-0.32848358 0.28759488 0.47683004 -0.49168256 0.5958655 -0.54117596 0.25514936 -0.2080017
-0.3353637 -0.015190889 0.23762286 -0.34674495 -0.27037165 -0.2557047 0.17789605 -0.3271113
-0.24396306 0.37563118 0.7304474 -0.5551711 -0.3877517 -0.14364187 0.16948427 -0.35811195
-0.50933635 0.12897545 0.40845454 -0.5690142 -0.7548574 -0.47545364 0.24678393 -0.43382314
-0.45189565 0.01860678 0.53448856 -0.45241353 -0.55427814 0.121406674 0.4432413 -0.6213402
-0.62681466 0.56738555 0.6537606 -0.81384754 0.46886876 -0.74031925 0.24516894 -0.08100225
-0.41937113 0.4898784 0.53782755 -0.65323895 -0.53346455 -0.5213832 0.23180738 -0.56309336
-0.03400447 -0.30791202 0.43410176 -0.5613042 -0.52396464 0.28744817 0.011648049 -0.17435004
0.2986477 -0.38437903 -0.52562195 0.63777995 -0.40631938 -0.6198638 0.41526735 -0.5458158
0.34626332 0.0050835144 -0.26586378 0.36731035 -0.23638906 -0.22700706 0.02642223 0.021777518
-0.3732891 0.28066462 0.13396858 -0.4410654 0.34926972 0.011541119 -0.29623032 0.3530188
-0.33107784 -0.19447441 0.2977953 -0.13990016 0.49009818 1.099018 0.047149483 0.30807212
-0.3579917 -0.1373978 0.07265457 -0.39743167 0.19894345 0.18784851 0.033470258 0.2895192
0.30764183 -0.030602166 0.40562415 -0.41042364 -0.40225753 -0.6452139 0.2229335 -0.56588066
-0.2573211 0.57596004 0.7534054 -0.46293226 -0.502193 -0.5951882 0.004540603 -0.33483967
0.3270515 0.1111576 -0.09172502 0.13966115 -0.5703666 0.3790328 0.19837438 -0.14300786
1.0036542 -0.6990689 -0.5695076 0.49840274 0.82333314 -0.45482698 -0.14466932 0.011726906
0.95960677 -0.88471836 -0.5866228 0.2810222 0.6798592 -0.22868352 -0.61916023 0.3862433
0.9693742 -0.8330345 -0.1064426 -0.032885887 1.0233032 0.95535046 -0.725111 0.80667675
0.85655886 -0.54873013 -0.31961206 0.037961926 1.0311372 -0.13884018 0.116605096 -0.23635057
0.96235865 -0.6986043 -0.2723464 -0.083556086 0.9264078 0.6774627 -0.55873275 0.5311067
0.8547893 -0.11752546 0.31463742 -0.43051836 0.90317994 -0.10646599 0.19657628 -0.43346137
0.9119564 -1.2319654 -0.21932732 0.091516264 1.1005476 0.08340297 -0.2685458 0.29555464
0.8798372 0.66825324 -0.6988964 0.77375937 0.6446157 0.05114403 0.41901678 -0.40326998

lstm.weight_hh_l0 f4 [64, 16]
00000000: 6bf4 55bd 72f4 b33e 6c0b 55be b4f4 8e3e
00000010: 415b ae3e e2f9 2bbe 268f 023d 8e7f 36bf
00000020: cb48 b03e b64c a3bd de34 73bd 6d7f 303f
00000030: 0cf7 a83d 1216 ac3c 2fb0 a6be 6bb1 cb3e
00000040: 4e32 ff3c e4e9 ae3c 49b8 cd3c 9733 57bc
00000050: bf6d 45be 19ba 0ebd a908 983c d7ae 583e
00000060: d5a9 95be 9b00 4ebd 7da2 0c3e 74db c7bc
00000070: e0b9 d6bd 2220 c4be 812a 2c3d 83ac b53d
00000080: 6ea1 263d 4ab7 87bd e1ec 453e ea48 16be
00000090: ba58 99be b3fd 9abd d8d4 473c 0a04 33be
000000a0: 0398 e5bd e0f3 d7bd 9d26 dc3d f19d 9ebc
000000b0: 6220 88bd f8af cabe f17b 233e 1679 233e
000000c0: f1e7 483d a575 103e 8489 56be 2e01 a6bb
000000d0: f57c 463e 7398 cabb df6f d23d 8d6f a5be
000000e0: 045a 683e 1226 38be 98e9 33bd 6b4e c23e
000000f0: 3d59 85bd d4d7 2d3e ea72 20be 39e8 aa3e
00000100: 4454 8d3d 7780 e4bd b9b4 573d 2b5c a9bd
00000110: 486a 6cbe f851 24be e8d2 1dbe 2635 f6be
00000120: 8787 26bf 7a84 eabd dc18 70be eef7 1dbf
00000130: 96a4 04be a859 18be eba4 0ebd 7e0e e63e
00000140: 5ced e23d 8c85 8f3e d21b 3abc 6522 7a3d
00000150: 3953 0fbe f0f0 97be 14f9 4b3e 76e0 74bf
00000160: aa69 fc3e ddc6 a8be a65b 543e bef7 e83e
00000170: 4a73 3ebe 9e53 553e 3c47 36be e6f6 903f
00000180: d1c8 66bd e1b7 613e 9397 3b3c b861 29bd
00000190: a78e 40bc b426 bcbd 4e8c 553e 4430 a1be
000001a0: 3f2d a43c 3172 c4bd a5cc 4f3e 1974 a23e
000001b0: bcd5 073e 2104 7f3d 9fbe 28ba 0701 913e
000001c0: 2521 4bbd 233e 743d 86af 0fbd 61b4 6bbc
000001d0: 31d3 a33d ae1a 28bd cdf7 94bd 9396 5bbe
000001e0: aabf 573d eddc 853d 9946 d83d 72a5 c63d
000001f0: 5f9b 5d3d 3751 073e 70d3 2b3d ab21 df3d
00000200: c5d9 e03d 8bf4 0abe b3f3 cf3d ba9e 90bd
00000210: b421 23be da10 803d 463d 8abd ef0c 92be
00000220: 76d2 03be 764c 763d 4ecf 5e3e 737f 213e
00000230: 7488 ecbd c188 b23c 7bad f73d e97e ff3e
00000240: c704 9dbd 27ce 263c d08f 353e 8dae 3bbe
00000250: fbdf 50be f42d 5bbd da75 57bd f6fa 92be
00000260: e73f 2ebd ee62 4b3d 5d52 853e 8e24 283e
00000270: a9e7 793e 1aa1 d63d ef24 613e 6d07 a23e
00000280: c56b 293d 9d21 51bf dd6d 1e3e ca9e afbe
00000290: 0f8b 4fbe c0c9 543d 6550 88be 0d89 5fbe
000002a0: e9b7 a0be 6351 a13d 1bd2 d23d 06ce eabe
000002b0: 1b43 733d 32ed 57be aa54 893e f44d ad3d
000002c0: 3149 73bc 561d 803c f74f 8fb9 1381 233c
000002d0: e091 69bd 16e1 24bc 757c 9d3c abb6 0a3e
000002e0: 6163 b6bd fd06 11bc b512 9c3d c905 f3bb
000002f0: c3d5 1b3c a109 c0bd 9b4a ed3b b790 223e
00000300: 16d5 01be 3ab3 d33e d7a7 8cbe 958a b53e
00000310: 2035 aa3e 4c93 12be 0f45 883d 1c1a 19bf
00000320: c47a 043f 6bb7 adbd a4ff 473e ce3d 753f
00000330: 5b14 e13d 4a20 d33e 04f7 97be 3eb6 be3e
00000340: b9fb 01bd ef12 453d abd9 1cbd 2955 2cbc
00000350: 39bd 063c 6170 b8bc 0dbe 4cbd ded1 1ebe
00000360: e1ee 043d 417a ce3c db45 ad3d d26b 123e
00000370: 4270 2a3d 488f f13d 80a0 853b 9b4b 013e
00000380: d215 5a3d 6e98 81be 16e3 243d 2b94 ce3d
00000390: ef8d d0be 4c82 95be 6c37 0bbe b71d e3bd
000003a0: f794 10bf c647 68be 876b e7be ae1c 2cbf
000003b0: 3201 86be a7d2 09bf 898f 93be 9cd2 a13d
000003c0: b1db 4abd f995 a03c 34c8 e6bc 681c babc
000003d0: 083e 953c 3fc3 bdbc 655a 5fbd c3d1 4abe
000003e0: 499c 153d 336c 523d 0b67 3b3e 58a4 3e3e
000003f0: e415 a03d 404a fd3d 27cf 513d d38c 3a3e
-0.05223505 0.35147434 -0.20805138 0.2792107 0.34053996 -0.16794541 0.0318748 -0.71288383
0.34430537 -0.07973616 -0.05937659 0.68944436 0.082502455 0.021006618 -0.32556292 0.39783797
0.031151917 0.021351762 0.025112288 -0.013134859 -0.19280146 -0.034845445 0.018558817 0.21160446
-0.29231134 -0.050293546 0.1373386 -0.024396636 -0.104846716 -0.38305765 0.042032722 0.088707946
0.040681295 -0.066267565 0.19328643 -0.14676252 -0.29950505 -0.075679205 0.012196742 -0.1748201
-0.112106346 -0.10544562 0.107495524 -0.019362422 -0.066468015 -0.39587379 0.15965249 0.1596416
0.04904932 0.14107378 -0.20950896 -0.0050660586 0.19383605 -0.006182724 0.10275244 -0.3231167
0.22690588 -0.17983273 -0.043923944 0.37950453 -0.065111615 0.16976863 -0.15668836 0.33380297
0.06900838 -0.11157315 0.052662585 -0.08269533 -0.23087418 -0.16046894 -0.15412486 -0.48087424
-0.6505055 -0.11451049 -0.23446983 -0.61706436 -0.1295341 -0.14877951 -0.034825247 0.44932932
0.11080429 0.28031576 -0.011359172 0.061067957 -0.1399659 -0.29676008 0.19919235 -0.95655
0.49299365 -0.3296422 0.20738086 0.45501512 -0.18598667 0.20832679 -0.17800611 1.1325347
-0.056343857 0.220428 0.011449712 -0.041352957 -0.011752761 -0.091870695 0.20854303 -0.31482136
0.020041106 -0.09592093 0.2029291 0.317292 0.13265127 0.062259797 -0.0006437096 0.28321096
-0.049592156 0.05962957 -0.0350795 -0.014386267 0.07999266 -0.04104107 -0.07273827 -0.21444158
0.05267302 0.06536279 0.105603404 0.09699525 0.05410325 0.13214575 0.04194969 0.108950935
0.10979036 -0.13569848 0.10153904 -0.07061525 -0.15930825 0.06253214 -0.06749968 -0.28525493
-0.12873253 0.060131513 0.21758768 0.15771274 -0.11549464 0.021793725 0.12093636 0.49901512
-0.07666927 0.0101809865 0.17730641 -0.18328305 -0.20397942 -0.05351062 -0.052602626 -0.28707093
-0.04254141 0.049654894 0.260394 0.16420195 0.24404778 0.104799464 0.21986745 0.3164629
0.041362543 -0.81691915 0.15471597 -0.34300834 -0.2026789 0.051950216 -0.26623836 -0.21829624
-0.31390312 0.078768514 0.10293981 -0.45860308 0.05939017 -0.21086577 0.26822406 0.08462134
-0.014848993 0.015638988 -0.00027334664 0.009979504 -0.057023883 -0.01006343 0.019224385 0.13546245
-0.08905674 -0.008851764 0.076207556 -0.007416461 0.009511414 -0.093768366 0.0072415597 0.15875517
-0.12678942 0.41347677 -0.27471802 0.35457292 0.33243656 -0.14314002 0.06653797 -0.59805465
0.51749825 -0.0848225 0.19531113 0.9579743 0.109902106 0.41235572 -0.29680645 0.37248415
-0.031734202 0.04811376 -0.03829352 -0.010518351 0.008223825 -0.022514524 -0.049985934 -0.15509745
0.032454375 0.02520478 0.084605895 0.14298943 0.041610964 0.11794907 0.004077971 0.12626497
0.053243466 -0.25311607 0.04025563 0.100868545 -0.40733287 -0.2920097 -0.1359536 -0.11089652
-0.564773 -0.2268363 -0.45199224 -0.6723126 -0.26172787 -0.53837055 -0.28820446 0.07901499
-0.04952592 0.019602763 -0.028171636 -0.022718623 0.018218055 -0.02316439 -0.054529566 -0.1980658
0.036526 0.051372718 0.18301027 0.1861738 0.07816675 0.12367678 0.051222946 0.18217783

lstm.bias_ih_l0 f4 [64]
00000000: f0de cc3d 857a 973e a5d0 e73c 9a79 3abc
00000010: 6f7f adbe 3dca f4be aa0a 7a3e 2bc1 583e
00000020: 9bf4 523e 9c40 a33e eedd 283f 66f3 753e
00000030: 5be5 8a3e 45ff 473e ccca edbe 3c11 6e3e
00000040: 575d 203f b76a 42bd 7bf5 c23e 652f 973e
00000050: 0c64 203f 4913 f63e e799 113f 5985 363d
00000060: fded 103f b1ee 303f a2b6 613f e735 5bbe
00000070: 559b 4c3f e10b 053e f069 e13e df91 0bbd
00000080: d0bb 0dbf 7ecb c63e 5f32 e1be d1cc 453e
00000090: c0fd c13e df7a e2be acfc 773e 3d4d 0dbe
000000a0: 894d 3d3e 6feb 1fbc 6df6 933e 1db7 b53e
000000b0: 0f76 333f 822b 243e 6106 81be 282c ab3a
000000c0: 84cb f2be da3b 91be 6ab5 01bf e26c d9be
000000d0: 2299 99be d57a 20bf 649d 9ebe c96c d9bb
000000e0: 6325 bebd f008 42be deb8 6c3e 8eab 543e
000000f0: 6899 76be a933 b6be 7a6b 00bf 1dfd 893e
0.100034595 0.29585662 0.028297732 -0.011381531 -0.33886287 -0.47810546 0.2441813 0.21167438
0.20601122 0.3188523 0.6596364 0.2401863 0.2712811 0.19530971 -0.46443784 0.23248762
0.62642425 -0.047465052 0.38077912 0.29528347 0.6265266 0.48061588 0.5687546 0.044560764
0.5661314 0.69114214 0.881693 -0.21407281 0.7992452 0.12992813 0.44026136 -0.03407466
-0.55364704 0.38827127 -0.43983743 0.19316413 0.37888908 -0.44234368 0.2421748 -0.13798995
0.18486609 -0.009760722 0.28898945 0.35491267 0.7010202 0.16032222 -0.2520018 0.0013059424
-0.47420895 -0.28365976 -0.5066744 -0.42465883 -0.29999644 -0.62687427 -0.30979455 -0.0066352827
-0.09284475 -0.18948722 0.23117396 0.20768568 -0.24081957 -0.3558629 -0.50163996 0.26950923

lstm.bias_hh_l0 f4 [64]
00000000: d2fb ce3d 78b0 823e 8d8e 833c 547f 12bc
00000010: 5ad7 c0be 72e5 04bf ca20 8c3e d669 493e
00000020: ba59 493e 214f a33e f0cc 2d3f ebc7 bf3e
00000030: 53fd 9a3e a961 483e 9688 edbe 385e 773e
00000040: 8a94 103f 14ed 0d3e f9e5 063f 3da5 953e
00000050: b143 153f 876f 213f 2a82 343f 2535 5c3d
00000060: a7f5 023f 4fce 563f a740 5e3f c34e a73d
00000070: 0bc7 7b3f 60ef aa3e dc53 e03e 4be4 a13d
00000080: 60d0 17bf 61a2 693c 8a50 a7be 5b0d 0c3e
00000090: 892f ea3d 341a 08bf 2a78 843e 3c99 8bbe
000000a0: bbcc a23e 5f64 37be ddec 933e 5ace 2f3e
000000b0: 67a4 443f 0b6d 4e3e c8c3 88be c4ab c63d
000000c0: cd67 0fbf 4e72 8dbe 6954 19bf bc1b e6be
000000d0: 8538 84be 8ab7 14bf c68b 40be 5528 d1bc
000000e0: e447 84be f6cc cfbe 7dbd 913e 99da 523e
000000f0: e843 a1be 04e0 bdbe c63c edbe 95ed 893e
0.10106625 0.2552526 0.016059184 -0.00894149 -0.376643 -0.51912606 0.27368766 0.1966928
0.19663134 0.31896308 0.67890835 0.37457213 0.30271396 0.19568504 -0.4639327 0.24157035
0.5647665 0.1385997 0.5269466 0.2922763 0.58306414 0.630608 0.70511115 0.05376162
0.51156086 0.8390855 0.868174 0.081693195 0.9835059 0.33385754 0.4381398 0.079048716
-0.5930233 0.014259906 -0.32678634 0.1367697 0.11434848 -0.5316498 0.25872928 -0.27265346
0.31796822 -0.17909382 0.2889165 0.1716856 0.7681336 0.20158784 -0.2671187 0.097007304
-0.5601776 -0.2762627 -0.59894425 -0.44943035 -0.2582437 -0.5809256 -0.1880332 -0.025531927
-0.25836098 -0.4058606 0.2846488 0.20591201 -0.3149712 -0.37084973 -0.4633543 0.26939073

fc.weight f4 [4, 16]
00000000: 7349 82c0 e613 8940 1493 35c0 b0a1 6d40
00000010: 2c7e 5940 998f 60c0 0879 9c40 1bd5 c540
00000020: 1fed 6140 ee86 adc0 923a b640 fa3d 3640
00000030: ef0d ad40 943b bdc0 69b7 46c0 5a0b b5c0
00000040: 661c 4dbb c1df d33c a9e5 f83b 0439 61bc
00000050: 2a32 12bc d564 ebb9 a296 5c3c 3000 853c
00000060: 5260 5e3c be30 59bc 5874 9d3b 7498 633c
00000070: 021f 7b3c 0e91 853b 898f 90bc ca96 f1bc
00000080: a7a5 e637 cb22 bbba 4bd4 cdba de45 ab3b
00000090: 6474 7b3b dae7 09bb 7276 873b 45de ed3a
000000a0: 6da3 933a 53c6 7138 5450 8b3b 8089 833b
000000b0: 170a be3a b556 eeba 213e f63a 922a 79ba
000000c0: 3ae2 db3b 3691 c13d aeeb e23c 9c57 bbbc
000000d0: d43f 2ebd 7ebe c53b ce39 64bb 0165 233d
000000e0: c9d8 f43c 8000 43bd 336f 093d 2b09 7b3d
000000f0: 26ab 253d 4fac dfbc 6a73 8ebd 0f84 9cbd
-4.071466 4.283679 -2.837102 3.7129936 3.398326 -3.5087645 4.8897743 6.182264
3.5300977 -5.422721 5.6946497 2.8475327 5.407951 -5.9135227 -3.1049445 -5.6576357
-0.0031297444 0.02586353 0.007595737 -0.013746504 -0.008923093 -0.0004489782 0.013463648 0.016235441
0.013572769 -0.01325625 0.004805129 0.013891328 0.015327217 0.0040761298 -0.017646568 -0.029490847
2.7495274e-05 -0.0014277337 -0.0015703527 0.0052268347 0.0038368935 -0.0021042735 0.004133993 0.0018147907
0.0011263915 5.764358e-05 0.004251519 0.004014194 0.0014498857 -0.00181838 0.0018786826 -0.00095049397
0.006710318 0.09451525 0.027700271 -0.022868924 -0.04254134 0.0060346713 -0.0034824493 0.039891247
0.029888527 -0.0476079 0.033553313 0.06128804 0.040446423 -0.027303843 -0.06955607 -0.07642376

fc.bias f4 [4]
00000000: fcab 9c40 b978 753c d7a6 293c 7427 0b3d
4.895994 0.014982396 0.010354719 0.033973172
