weights/R_2.pth (torch_old, 6914 bytes, 6 tensors)

lstm.weight_ih_l0 f4 [64, 4]
0	0x3dfb1d99	0.12261505
1	0xbcec8ba8	-0.028875187
2	0xbc7daf28	-0.015483655
3	0xbde4ae25	-0.11166028
4	0x3e5779dc	0.2104258
5	0xbcb5010b	-0.022095224
6	0x3eb1a8f7	0.34699222
7	0xbe7f8331	-0.2495239
8	0xbecf0c76	-0.40439194
9	0xbdb4cb98	-0.08827895
10	0x3e86441f	0.26223847
11	0xbd810b2e	-0.063009605
12	0x3e1889be	0.14896294
13	0x3cd18de6	0.025580358
14	0x3c22ad48	0.009929009
15	0xbe74f28f	-0.23920654
16	0x3e5f3c45	0.21800335
17	0xbcddaf56	-0.027061146
18	0x3df75b64	0.12077978
19	0xbe125cb0	-0.1429317
20	0xbd9a23e2	-0.07526375
21	0xbd4a8093	-0.049439024
22	0x3dc50011	0.09619153
23	0xbe507a38	-0.20359123
24	0xbef92751	-0.4866281
25	0xbd691d0c	-0.056912467
26	0x3e49ffca	0.19726482
27	0xbe22c83e	-0.15896699
28	0x3e04d926	0.1297346
29	0xbe1df0d4	-0.154239
30	0xbdb72507	-0.08942609
31	0x3eaf4765	0.34234157
32	0x3d668bfa	0.056285836
33	0xbd0002b4	-0.031252578
34	0xbe3447f2	-0.1760557
35	0xbec29819	-0.38006666
36	0xbea326b7	-0.31865475
37	0x3db9ac8e	0.09066115
38	0x3d605624	0.05476965
39	0xbe5740dc	-0.21020836
40	0x3e423b9c	0.18968052
41	0x3d1e41ce	0.038636975
42	0x3e45d612	0.19319943
43	0xbe9e11cf	-0.30872962
44	0xbd25570b	-0.040366214
45	0x3d3e781a	0.046501257
46	0x3cae626e	0.02128717
47	0xbd973d36	-0.07384722
48	0x3e1aa491	0.1510184
49	0xbcfe1277	-0.031014664
50	0xbc08e15f	-0.008354514
51	0x3cacbc5d	0.021085912
52	0x3e099b8b	0.13438241
53	0xbd1f6a33	-0.03891964
54	0x3cf45870	0.029827327
55	0xbe22f9d7	-0.15915619
56	0x3e0ee62b	0.1395499
57	0x3d1771d2	0.036973782
58	0x3e589ac6	0.21152791
59	0xbeb15d03	-0.34641275
60	0x3d88c972	0.06679048
61	0xbd30b9a1	-0.04314578
62	0x3da96230	0.08270681
63	0xbe2b131a	-0.16706505
64	0x3e0f5c67	0.14000092
65	0xbd02f121	-0.03196824
66	0x3e41a5cb	0.18910901
67	0xbe7e8c9f	-0.2485833
68	0xbeceee45	-0.4041616
69	0xbc0c0b5a	-0.008547628
70	0x3e9f8c00	0.311615
71	0xbe4370b5	-0.19085963
72	0xbf01bada	-0.5067574
73	0x3debf110	0.115205884
74	0x3e708833	0.23489456
75	0xbe6b3750	-0.22970319
76	0xbf58edfd	-0.8473814
77	0x3dd5e925	0.104448594
78	0x3ce5b807	0.028041853
79	0xbe532507	-0.20619594
80	0xbf037a9c	-0.5135896
81	0x3d37a8ff	0.0448389
82	0x3e2965d9	0.16542758
83	0xbe34c516	-0.17653307
84	0xbef6a7ce	-0.481749
85	0x3d72668d	0.05917983
86	0x3e2763f3	0.16346721
87	0xbd5d0dba	-0.05396817
88	0xbf40ce7d	-0.75315076
89	0x3da09b55	0.07842127
90	0x3d51ba2e	0.051202945
91	0xbe539cea	-0.20665327
92	0xbf18ca24	-0.5968344
93	0x3d2bd433	0.041950416
94	0x3e22d127	0.15900098
95	0xbd02c081	-0.031921867
96	0x3e96157c	0.29313266
97	0xb999b6a8	-0.00029318524
98	0x3e47f4d5	0.1952699
99	0xbe87ec0f	-0.26547286
100	0xbf1ded5c	-0.61690307
101	0x3e26646f	0.1624925
102	0x3db12b72	0.08650865
103	0xbe6d8161	-0.23193885
104	0xbf8144ae	-1.0099084
105	0x3e2af11e	0.16693541
106	0x3ce004ba	0.027346004
107	0xbe6af60a	-0.22945419
108	0x3e55e8f9	0.20889653
109	0x3da68c7d	0.08132265
110	0x3e0da5a5	0.1383272
111	0x3ccdddbd	0.025130147
112	0x3e106494	0.14100868
113	0xbd4372cb	-0.047716897
114	0x3e506e8d	0.20354672
115	0xbe89c81d	-0.26910487
116	0x3dfd00ae	0.12353645
117	0xbd82976c	-0.06376538
118	0x3e2d316a	0.16913381
119	0xbe38888a	-0.18020836
120	0xbf7b7000	-0.98217773
121	0x3e31ea37	0.17374502
122	0x3d54e9fa	0.05198095
123	0xbe549ea3	-0.2076364
124	0x3e9f20fb	0.3107985
125	0xbdc73a82	-0.09727956
126	0x3d626415	0.055271227
127	0x3d216f48	0.039412767
128	0xbe436699	-0.19082107
129	0x3d487488	0.048939258
130	0xbe4fb47b	-0.20283692
131	0xbd2429b6	-0.04007884
132	0xbe903261	-0.28163436
133	0x3efba5ab	0.49149832
134	0x39e2155c	0.00043121993
135	0xbdd7841d	-0.105232455
136	0x3e9280e9	0.28613976
137	0x3d5bd3a0	0.05366862
138	0x3ea4603a	0.32104665
139	0x3e14fad3	0.14548807
140	0x3ee84c08	0.45370507
141	0xbe88eb32	-0.2674194
142	0xbe400429	-0.18751587
143	0x3db902d6	0.09033744
144	0xbecdb49c	-0.40176857
145	0x3e1fc3dd	0.1560206
146	0x3df367e4	0.1188505
147	0xbe30b243	-0.17255501
148	0xbe84ed9b	-0.2596253
149	0xbe8df1df	-0.27723595
150	0xbdc78026	-0.09741239
151	0xbbe42801	-0.0069627766
152	0x3edd70c2	0.4325009
153	0xbe07a6a6	-0.13247165
154	0x3d3fd159	0.04683051
155	0x3daf2b8f	0.0855323
156	0x3ed9cc5f	0.42538735
157	0x3cf56e6e	0.029959884
158	0x3dbbce70	0.09170234
159	0x3e59e479	0.21278562
160	0xbe5340b6	-0.20630154
161	0x3e82f7c4	0.25579655
162	0xbe17ac76	-0.14811882
163	0xbe60719e	-0.21918342
164	0x3e83d5ed	0.2574915
165	0xbdcdff13	-0.10058417
166	0x3e8f8751	0.28032926
167	0xbcc4a9ba	-0.024006713
168	0x3ec5988f	0.38592955
169	0xbf060347	-0.5234875
170	0xbe73885d	-0.23782487
171	0x3dc57b2c	0.09642634
172	0x3dc20eaa	0.09475453
173	0x3d69532f	0.056964096
174	0xbc19881e	-0.009370832
175	0xbddcaf85	-0.10775665
176	0x3e6b4282	0.2297459
177	0xbda953fc	-0.08267972
178	0x3d013d7c	0.031552777
179	0xbe18fb91	-0.14939715
180	0xbe940e19	-0.28917006
181	0x3dedf3b2	0.11618747
182	0xbde8e725	-0.11372212
183	0xbe550f9c	-0.20806736
184	0xbed0cd6c	-0.40781724
185	0x3ebbf233	0.3670822
186	0x3da57d38	0.08080524
187	0xbe429b1b	-0.1900448
188	0xbd81cf3d	-0.06338356
189	0xbe010367	-0.12598954
190	0xbe1d5bf6	-0.15367112
191	0xbda82733	-0.08210602
192	0x3e52db15	0.20591386
193	0xbdc391cd	-0.09549294
194	0x3eb003e4	0.34377968
195	0xbe01c11b	-0.1267132
196	0x3eab227c	0.33424747
197	0x3d3482cb	0.044070046
198	0x3ef3cac7	0.47615644
199	0xbea95cb4	-0.3307854
200	0x3ee2d6eb	0.44304594
201	0xba62ef2c	-0.0008656855
202	0x3eda04b4	0.42581713
203	0xbe4821cd	-0.19544144
204	0xbdd6a517	-0.10480707
205	0xbb98e5ef	-0.004666082
206	0x3e28a752	0.16470078
207	0xbc9bb1ba	-0.019005645
208	0x3e9d1310	0.30678606
209	0xbdec075a	-0.1152484
210	0x3ea8e365	0.32985988
211	0xbe16fbe9	-0.14744534
212	0x3ec30e98	0.38097072
213	0xbe1afa26	-0.15134487
214	0x3ebc183e	0.36737245
215	0xbd730dfc	-0.05933951
216	0x3e870853	0.26373538
217	0x3bad9151	0.005296864
218	0x3ee629be	0.44953722
219	0xbea7c3fd	-0.32766715
220	0x3e6dfba0	0.23240519
221	0xbce3d91d	-0.027813489
222	0x3ebacb5e	0.36483282
223	0xbe9ca8a2	-0.30597407
224	0xbdc205b1	-0.09473742
225	0x3e0775f9	0.13228597
226	0x3e4da03e	0.20080659
227	0xbe31b378	-0.17353618
228	0xbe8cf490	-0.27530336
229	0x3d9bd98a	0.07609852
230	0x3e44b3aa	0.19209161
231	0xbe70cfe9	-0.23516811
232	0xbe0b616b	-0.13611381
233	0x3c22625c	0.009911146
234	0x3e62466a	0.22097173
235	0xbe104946	-0.14090452
236	0xbf475d05	-0.7787631
237	0x3db29886	0.08720498
238	0x3eb54b86	0.35409182
239	0xbeb4dedd	-0.3532628
240	0x3e669d5d	0.22520967
241	0xbd90cccc	-0.07070312
242	0x3ecf778f	0.40520903
243	0xbe5f6243	-0.21814828
244	0xbe0e377f	-0.13888358
245	0xbcace67c	-0.021105997
246	0x3ed6ab80	0.4192772
247	0xbe749571	-0.23885132
248	0xbe20276f	-0.15640043
249	0xbc8e861d	-0.017397935
250	0x3ea599dd	0.3234395
251	0xbe70dae8	-0.23521006
252	0xbf246097	-0.64209884
253	0x3d8a4fb1	0.06753481
254	0x3ede6ddd	0.43443194
255	0xbdb2070d	-0.08692751

lstm.weight_hh_l0 f4 [64, 16]
0	0xbd762486	-0.060093425
1	0x3d3f5845	0.04671504
2	0x3d06fe28	0.032957226
3	0xbc9a39a6	-0.018826317
4	0x3bc5b6be	0.0060337475
5	0x3c8d311c	0.017235331
6	0x3d2b220a	0.04178051
7	0xbb8680e0	-0.0041047186
8	0x3d6de3e4	0.05807866
9	0x3d3a84d8	0.045536846
10	0xbcdb4cf2	-0.026770089
11	0x3d089436	0.03334447
12	0x3d8d146b	0.0688866
13	0xbd87b314	-0.06625953
14	0x3d638656	0.055548035
15	0x3d944fb2	0.07241763
16	0xbe34c7a1	-0.17654277
17	0xbc1c60bb	-0.009544547
18	0x3dc92be8	0.098228276
19	0xbd4ef46c	-0.050526068
20	0x3d86f3ed	0.06589494
21	0x3cb1cfd6	0.02170555
22	0x3d9f78a7	0.077866845
23	0xbd2142f0	-0.039370477
24	0x3d88f004	0.06686404
25	0x3df2c5c5	0.11854128
26	0xbcb973e7	-0.022638274
27	0x3d0e3470	0.034717977
28	0x3e208088	0.15674031
29	0xbe0d72be	-0.13813302
30	0x3d35f3af	0.044421848
31	0x3df951c7	0.12173801
32	0xbe65b9ce	-0.2243416
33	0xbe30c5b6	-0.1726292
34	0x3dd0a271	0.10187233
35	0x3decfcbf	0.11571645
36	0x3e2923da	0.16517583
37	0xbbdc71c6	-0.00672743
38	0x3cf023a1	0.029313864
39	0x3e34b63d	0.17647643
40	0xbd2872c0	-0.04112506
41	0x3d49c839	0.049263213
42	0x3dc59d61	0.09649158
43	0xbc67520a	-0.014118681
44	0x3e6579b3	0.22409706
45	0xbe120e78	-0.14263332
46	0xbda233ef	-0.07920062
47	0x3ea84df9	0.32871988
48	0xbd23bece	-0.039976887
49	0x3e2fc3f9	0.17164601
50	0x3dba5f58	0.091002166
51	0xbe1e5fa3	-0.1546617
52	0x3d8cec55	0.06881014
53	0x3bcecbe8	0.0063109286
54	0x3e15f23f	0.14643191
55	0xbe0383c3	-0.12843232
56	0x3e60b84c	0.21945304
57	0x3e3a636f	0.18201993
58	0xbe3af2af	-0.18256639
59	0x3e26e482	0.16298106
60	0x3d27ca6a	0.04096452
61	0xbd79478a	-0.06085924
62	0x3e3fd3a5	0.1873308
63	0x3d7c99db	0.061670166
64	0xbe5188c1	-0.20462324
65	0x3d467cf1	0.048458997
66	0x3e788b29	0.24271835
67	0xbd98467d	-0.074353196
68	0x3d8a7ba1	0.067618616
69	0x3e149af5	0.14512236
70	0x3e4dd9b5	0.2010258
71	0xbdcf9110	-0.1013509
72	0x3e1ff6b4	0.15621454
73	0x3e211298	0.15729749
74	0xbd08ab67	-0.033366587
75	0x3e0d9a5a	0.13828412
76	0x3e50f45f	0.2040572
77	0xbe4de8a3	-0.20108275
78	0x3ce8c43e	0.028413888
79	0x3dfb5d4b	0.122736536
80	0xbe2c904e	-0.16851923
81	0xbde38e09	-0.111110754
82	0x3e0b388c	0.1359579
83	0x3d5d445c	0.05402027
84	0x3e62dad7	0.22153793
85	0x3e3f94b9	0.18709077
86	0x3d24c5ba	0.04022763
87	0xbd4ad5c7	-0.04952028
88	0x3ed07ad6	0.40718716
89	0x3cf1727b	0.029473534
90	0x3df5cca7	0.12001925
91	0x3d2309ad	0.03980415
92	0x3e31683e	0.17324921
93	0xbe5a0557	-0.212911
94	0xbde72273	-0.112858675
95	0x3e3918a5	0.18075807
96	0xbe66097a	-0.22464553
97	0xbea32482	-0.3186379
98	0x3da37e69	0.07983095
99	0x3e20dbec	0.15708894
100	0x3e81c977	0.25349018
101	0x3e0a00e3	0.13476901
102	0xbca8eeb6	-0.020621639
103	0x3da61229	0.081089325
104	0xbbe7d01f	-0.0070743705
105	0xbd0b30a4	-0.033981934
106	0x3e3400ea	0.17578474
107	0xbd6f36a3	-0.058401715
108	0x3e673507	0.22578822
109	0xbe5d09a1	-0.21585704
110	0xbe1b8ef8	-0.15191257
111	0x3e9ea247	0.30983183
112	0x3d4f9164	0.050675765
113	0x3ecc5583	0.3990899
114	0x3d01c399	0.031680677
115	0xbe09b9a7	-0.13449727
116	0x3e074493	0.13209753
117	0x3d9e6915	0.077348866
118	0x3de8e376	0.1137151
119	0xbe0c162a	-0.1368033
120	0x3f3df1b1	0.74196917
121	0x3e369c4f	0.17833064
122	0xbe5449ef	-0.20731328
123	0x3e72d4a0	0.23713923
124	0xbd515895	-0.05110987
125	0x3c856b0d	0.016286397
126	0x3e58b7cd	0.21163864
127	0x3b90d5d4	0.0044200215
128	0x3df408db	0.119157515
129	0x3e603d8e	0.21898481
130	0xbe8a4410	-0.27005053
131	0xbe4c7f52	-0.19970444
132	0x3dbfb3ed	0.0936049
133	0xbc180b3a	-0.00928002
134	0xbd9e57f2	-0.07731618
135	0xbd53027c	-0.05151604
136	0xbd0a7884	-0.03380634
137	0x3d998d4f	0.074976556
138	0xbe8110ff	-0.2520828
139	0xbd8dfe80	-0.06933308
140	0xbde760ed	-0.11297784
141	0x3e31eb4b	0.17374913
142	0x3dc86619	0.097850986
143	0xbe5ea332	-0.21741942
144	0xbdc329db	-0.09529468
145	0xbe09ca4b	-0.13456075
146	0x3df0d649	0.11759622
147	0x3d18a5ba	0.037267424
148	0x3e14bbe7	0.14524804
149	0x3e347667	0.17623292
150	0x3d42d398	0.047565073
151	0x3b79c187	0.0038109736
152	0xbcca7d6e	-0.024718013
153	0x3cc2067c	0.023684733
154	0x3df29403	0.11844637
155	0x3c83b89e	0.016079243
156	0x3dd6eb84	0.1049414
157	0xbd86613b	-0.06561514
158	0xbe04c9dd	-0.1296763
159	0x3db55436	0.088539526
160	0xbe447291	-0.19184329
161	0x3ccac360	0.024751365
162	0x3e7a8a2d	0.24466772
163	0xbd63ec41	-0.05564523
164	0x3de34c08	0.11098486
165	0x3da30bec	0.07961258
166	0x3e16bbd4	0.14720088
167	0xbdaef8a8	-0.08543521
168	0x3e08883c	0.1333322
169	0x3e42727b	0.18988983
170	0xbd7501a0	-0.059816003
171	0x3de3668d	0.111035444
172	0x3e39d606	0.1814805
173	0xbe2cb1d9	-0.16864718
174	0x3da15328	0.07877189
175	0x3e1f4708	0.1555444
176	0xbbed73d7	-0.007246475
177	0x3e81a5f4	0.25321925
178	0x3e88a360	0.26687145
179	0xbd8b6ca6	-0.068078324
180	0x3d4bf880	0.049797535
181	0x3e2c7320	0.16840792
182	0x3e7376ee	0.23775837
183	0xbd9b9fd3	-0.075988434
184	0x3e7317aa	0.23739496
185	0x3e6f0ecc	0.23345488
186	0xbd9a7c52	-0.075432435
187	0x3da91ffb	0.08258053
188	0xbac60497	-0.0015107569
189	0x3beec376	0.0072864844
190	0x3dd65968	0.10466272
191	0x3e83d464	0.2574798
192	0xbda1b841	-0.07896472
193	0x3d4b9a23	0.049707543
194	0x3d1aa2bb	0.037752848
195	0xbca5743c	-0.020197026
196	0x3c36fd9c	0.011168864
197	0x3ceccc25	0.028905937
198	0x3d43ebb9	0.047832225
199	0xbc167c2a	-0.009184876
200	0x3da3f658	0.08005971
201	0x3d452d59	0.04813895
202	0xbcdb2c31	-0.02675447
203	0x3d2bf448	0.04198101
204	0x3db5f379	0.08884329
205	0xbdaacaa7	-0.08339434
206	0x3da240e2	0.07922532
207	0x3dae3a0f	0.085071675
208	0xbdc03081	-0.093842514
209	0x3cfacd3a	0.030615438
210	0x3cb213c1	0.021737935
211	0xbca0ae2c	-0.019614302
212	0x3b9109d5	0.004426221
213	0x3d45c357	0.048281994
214	0x3d1b0570	0.037846982
215	0xbc8724c1	-0.016497018
216	0x3d6170e5	0.055039305
217	0x3d4a6d9c	0.049420938
218	0xbcb95b0f	-0.022626428
219	0x3d01309d	0.031540502
220	0x3dcfef92	0.10153116
221	0xbdc357dc	-0.09538242
222	0x3d6f791e	0.058465116
223	0x3d9d92a1	0.07693983
224	0xbe0660f9	-0.1312293
225	0x3ca97ba5	0.020688841
226	0x3e4ec3bb	0.20191853
227	0xbd8d02b1	-0.06885279
228	0x3dfd6bc9	0.12374074
229	0x3daef666	0.085430905
230	0x3e20178a	0.1563398
231	0xbddb79a8	-0.107165635
232	0x3e0ee96f	0.13956235
233	0x3e442e90	0.19158387
234	0xbd8137fc	-0.06309506
235	0x3e099089	0.13434042
236	0x3e01f1c7	0.12689887
237	0xbe0a6791	-0.1351607
238	0x3d912485	0.07087044
239	0x3e09e15a	0.13464871
240	0xbdafe2ab	-0.08588155
241	0x3d47a3ae	0.04874008
242	0x3d9a9ccb	0.07549437
243	0xbd918866	-0.07106094
244	0xbd42f624	-0.04759802
245	0x3d1722cf	0.03689843
246	0x3da028ec	0.07820305
247	0xbc74d7d4	-0.014944036
248	0x3db0a23b	0.08624693
249	0x3d4ab57a	0.049489476
250	0xbd8ac4e1	-0.06775833
251	0x3dbca95e	0.09211992
252	0x3db8c740	0.09022379
253	0xbd83e977	-0.06441014
254	0x3d9a96d8	0.075483024
255	0x3c0771a4	0.00826684

lstm.bias_ih_l0 f4 [64]
0	0x3d78c076	0.06073042
1	0x3e4d6dcd	0.20061417
2	0x3e6fe8f0	0.23428702
3	0x3d9b5600	0.075847626
4	0x3ddcfd8d	0.107905485
5	0x3e450ada	0.19242421
6	0x3e196b21	0.14982273
7	0x3b8ed7cd	0.0043592216
8	0x3bcbde28	0.0062215514
9	0xbc0a7763	-0.008451316
10	0x3e2ec5ad	0.17067595
11	0x3d31be52	0.043394394
12	0x3c28103b	0.010257776
13	0x3d93b42b	0.07212099
14	0x3e312d31	0.17302395
15	0x3de68ab5	0.11256925
16	0x3e1ea61f	0.15493058
17	0x3e572e34	0.21013719
18	0x3e67c9a7	0.22635518
19	0x3b64ce3d	0.0034912967
20	0x3e261642	0.16219428
21	0x3e47b071	0.19500901
22	0x3d003edc	0.031309947
23	0x3d152d79	0.03642032
24	0x3e22cda4	0.15898758
25	0x3c4db954	0.012556393
26	0x3d753ae8	0.05987063
27	0x3d8480d8	0.064698875
28	0x3e2ce2a2	0.16883329
29	0x3e4be985	0.199133
30	0x3cf88bfe	0.030340191
31	0x3db487a8	0.08814937
32	0xbe20a13b	-0.15686505
33	0x3db09b1b	0.08623334
34	0x3da2f263	0.07956388
35	0xbdb47f11	-0.088132985
36	0xbcd1f523	-0.025629586
37	0xbdd2e6d8	-0.10297936
38	0x3a10920b	0.0005514926
39	0xbe2a88ef	-0.16653799
40	0x3db18ea6	0.08669786
41	0x3e084200	0.13306427
42	0x3cb8d12c	0.022560678
43	0xbd3079fc	-0.043085083
44	0x3c8c3bf7	0.017118437
45	0xbdbcb9ed	-0.0921515
46	0x3cfe4b47	0.031041754
47	0x3d47e7be	0.04880499
48	0x3e78c0ed	0.24292345
49	0x3ea12314	0.31472075
50	0x3e3d71df	0.1850047
51	0x3e44ecb9	0.19230928
52	0x3ea698b1	0.3253837
53	0x3e58e59a	0.21181336
54	0x3e6d99fc	0.23203272
55	0x3e7b5ca1	0.24547054
56	0x3e3a8e4f	0.18218349
57	0x3e31e3b1	0.17372014
58	0x3e7c2479	0.24623288
59	0x3e9f3491	0.31094792
60	0x3e888676	0.26665086
61	0x3e5a2c8d	0.21306057
62	0x3e951331	0.29116204
63	0x3ef7ca6c	0.48396623

lstm.bias_hh_l0 f4 [64]
0	0x3cc59e54	0.024123348
1	0x3e55053b	0.20802777
2	0x3e6ac13a	0.22925273
3	0x3daa17f3	0.08305349
4	0x3dddc710	0.10828984
5	0x3e4ac125	0.19800241
6	0x3e1bcd9b	0.15215151
7	0x3b841bf1	0.004031651
8	0xbe1405db	-0.14455359
9	0x3e4b8466	0.19874725
10	0x3e28f26c	0.16498727
11	0x3d44649a	0.047947504
12	0x3dcab4e8	0.098977864
13	0xbbb73f51	-0.0055922647
14	0x3e303e64	0.172113
15	0x3da5be61	0.080929525
16	0x3e1f04ec	0.15529221
17	0x3e817a80	0.25288773
18	0x3e5a91e1	0.21344711
19	0x3b2bfe09	0.0026243946
20	0x3e2b179d	0.16708227
21	0x3e4484ca	0.1919128
22	0x3d0220c7	0.03176954
23	0x3d177603	0.03697778
24	0x3e815ba0	0.25265217
25	0xbd7d6f1f	-0.06187355
26	0x3cf406c5	0.029788384
27	0x3d974f14	0.0738813
28	0x3e2cbdd6	0.16869292
29	0x3e5a3d76	0.21312508
30	0x3d24985c	0.040184364
31	0x3dc6e927	0.09712439
32	0xbe05c04b	-0.13061635
33	0x3e84ce10	0.25938463
34	0x3daeeb7d	0.085410096
35	0xbd11b1ab	-0.035569828
36	0x3d9d616e	0.07684599
37	0xbe12c194	-0.14331657
38	0x3ce4f38b	0.027948162
39	0xbd30d7fe	-0.043174736
40	0x3d4eb5ca	0.050466336
41	0xbdfd1cc8	-0.12359005
42	0xbe53e7c9	-0.20693888
43	0xbe3af0b5	-0.18255885
44	0xbd7e25b8	-0.06204769
45	0xb9fc04bf	-0.00048068722
46	0x3db9f9c8	0.09080845
47	0x3e04a6b8	0.12954223
48	0x3e6e14fb	0.23250191
49	0x3e90ee21	0.28306678
50	0x3e3d733b	0.18500988
51	0x3e426966	0.18985519
52	0x3ea325a6	0.3186466
53	0x3e590ac2	0.2119551
54	0x3e6d9a3a	0.23203364
55	0x3e7b5c93	0.24547033
56	0x3e846cfb	0.25864395
57	0x3e80835f	0.25100228
58	0x3e533ab5	0.20627864
59	0x3ea1ecb9	0.31625918
60	0x3e8d6b7f	0.27621076
61	0x3e3a7156	0.18207297
62	0x3e94615b	0.28980526
63	0x3ef6d6e8	0.48210835

fc.weight f4 [4, 16]
0	0xc087e90e	-4.247199
1	0x407ffe3e	3.9998927
2	0x4090e84f	4.528358
3	0xc089017c	-4.281431
4	0x409b0690	4.844551
5	0x4092e0d1	4.5899434
6	0x408f3185	4.474795
7	0xc090826b	-4.51592
8	0x4056ed0f	3.358219
9	0x40883778	4.256771
10	0xc093180a	-4.5966845
11	0x408b7f97	4.359325
12	0x4088285e	4.2549276
13	0xc08b3cf1	-4.351189
14	0x408d2fed	4.4121003
15	0x40904980	4.508972
16	0xbd320557	-0.043462124
17	0x3d1ae021	0.037811402
18	0x3d4640ab	0.048401516
19	0xbd5cf9db	-0.05394922
20	0x3d28a63b	0.041174155
21	0x3d7fb040	0.062423944
22	0x3d04e21e	0.032442205
23	0xbd4b5534	-0.049641803
24	0x3d0a8e38	0.033827037
25	0x3cd0b739	0.025477992
26	0xbd3a398b	-0.045465034
27	0x3d0d15e6	0.034444712
28	0x3d27628e	0.040865473
29	0xbd2ff503	-0.04295827
30	0x3d3bb315	0.045825083
31	0x3d233767	0.039847758
32	0x3ab0ba27	0.0013483212
33	0x3aafcfdb	0.0013413386
34	0x3cc00e65	0.023444364
35	0xbb602137	-0.0034199485
36	0xbc1bcc20	-0.009509116
37	0xbb3fbf34	-0.0029258253
38	0xbcfa20af	-0.030533163
39	0xbcbd7a80	-0.023129702
40	0x3a49d2a0	0.0007698927
41	0xbd04578c	-0.032310054
42	0x3c3ce4c2	0.0115291495
43	0x3c28718f	0.010280981
44	0xbc310e0e	-0.010806574
45	0xbd078e26	-0.033094548
46	0xbc5dbe95	-0.013534208
47	0x3ca9b850	0.02071777
48	0xbde76fa9	-0.11300594
49	0xbd2e5571	-0.042561952
50	0x3e175ae0	0.1478076
51	0x3e2c038f	0.16798232
52	0x3e4f10af	0.20221208
53	0x3e8bb603	0.272873
54	0x3d9c9161	0.07644916
55	0x3ea807f8	0.3281858
56	0x3eaf05f5	0.34184232
57	0x3dd3b9e0	0.10338187
58	0x3d07b549	0.03313187
59	0x3db7f264	0.08981779
60	0x3ddb79af	0.10716569
61	0x3d0f7207	0.035020854
62	0x3d05c15d	0.03265511
63	0x3df8b827	0.12144499

fc.bias f4 [4]
0	0x40897308	4.295292
1	0x3d4fd998	0.050744623
2	0x3ac93b82	0.0015352818
3	0x3e10b78a	0.14132515
